critic_agent0.pth (torch_old, 235730 bytes, 19 tensors)

fc1.weight f4 [256, 24]
000000 68 5b 4d 3e 16 06 15 3e 95 19 b3 3c fa 76 61 3d
       0.200544 0.14553103 0.021862784 0.055045106
000010 f5 3f 9e 3f b7 13 ac bd 9a 02 9f bd b6 31 64 3d
       1.2363268 -0.08402198 -0.07764168 0.05571147
000020 31 e8 4e 3e 46 6b d9 3e 9e 6f 15 bd 88 ef 1d 3f
       0.20205761 0.42464656 -0.0364834 0.6169362
000030 bd ba 19 3f 47 db 80 3e 2f c1 07 bd a9 98 0d 3f
       0.60050565 0.25167295 -0.03314322 0.55311066
000040 17 5e 82 be 15 36 8c 3e a2 6b 86 3e 76 69 8f be
       -0.2546241 0.2738501 0.26253992 -0.28010148
000050 15 31 09 bd fe 3e 54 3f c5 1e 55 3e e1 65 8d be
       -0.033494074 0.8290862 0.20812519 -0.2761679
000060 ac 66 d3 be 68 da fa bd 10 e8 25 3e 2c 75 24 bf
       -0.4128927 -0.12248689 0.16201806 -0.6424129
000070 4c 7b 0e 3f fd 6e 1b bf 63 be 36 3e 98 f9 23 bf
       0.55656886 -0.6071623 0.17846064 -0.64052725
000080 79 d7 45 be c0 ea 3c be e3 4b 27 3d 84 78 dd be
       -0.19320478 -0.18448925 0.040843856 -0.4325601
000090 63 12 bf 3e 63 b6 52 bf 67 36 a1 3d e3 1f 0e bf
       0.37318715 -0.8230955 0.078717045 -0.55517405
0000a0 8b cd 24 be 1f ed 6e be 25 12 27 3d d9 28 2e bf
       -0.16094033 -0.23332642 0.04078879 -0.6803108
0000b0 f0 fa 85 3e 23 2d 83 bf c5 34 95 bd 2d 9b 24 bf
       0.26168013 -1.024815 -0.072854556 -0.6429928
0000c0 ed 84 cb 3d 31 7b 20 3f 42 3c 53 3c 99 83 d9 3d
       0.09937463 0.62687975 0.012892785 0.106208034
0000d0 15 1d 77 be 27 ad 88 bf 7b ec b6 bc 2e d6 d8 3c
       -0.24132188 -1.0677842 -0.02232956 0.026469316
0000e0 8b a7 5d 3e 37 97 8f 3e c4 4b 1e 3e bf f2 a3 be
       0.21645944 0.28045055 0.1545859 -0.32021138
0000f0 ca 96 95 bd bc 06 d6 bf a1 d3 3f 3e 6b 56 8b be
       -0.07304151 -1.6720805 0.18733074 -0.2721437
000100 21 64 d2 bd 6a 24 54 3e d4 77 55 3e 47 57 ab 3e
       -0.10273004 0.20717016 0.20846492 0.33465025
000110 ca 15 0b be f6 30 a8 bf 80 9e d9 3d fe 96 86 3e
       -0.1358253 -1.3139942 0.106259346 0.26287073
000120 02 ff b5 3e 92 6e b9 bf 88 33 85 ba 8f aa 43 3e
       0.35546118 -1.4486868 -0.0010162452 0.19108032
000130 45 be 66 3e a7 53 0f 3f 53 2a 8a bd 35 e1 3d 3e
       0.2253352 0.5598702 -0.06746354 0.18542941
000140 11 00 67 3f 2a a7 c2 bf 6d 25 ee ba 8f 47 d0 bd
       0.90234476 -1.5207264 -0.0018169113 -0.10169899
000150 c5 81 6c bd 65 ec 00 be f1 6f 3b bc b3 38 4c bd
       -0.057740945 -0.12590177 -0.011440263 -0.04985876
000160 f8 a4 37 3f a9 63 e1 bf aa 4a f2 bd 28 1a ec be
       0.717361 -1.7608539 -0.11830647 -0.46113706
000170 c9 26 43 be a7 a4 05 bf 3d a9 4a be 92 d3 dc be
       -0.19057764 -0.52204365 -0.19791122 -0.43130165
000180 d0 83 0b bf b4 38 23 bd 64 48 7b 3e ec 52 dd 3d
       -0.54498005 -0.039849 0.24539334 0.10806832
000190 1f 78 62 3d 4e c1 4d be 69 91 3f 3e 66 d0 c7 3d
       0.055290338 -0.20093271 0.18707813 0.09756546
0001a0 0c c0 0a bf e7 bc 00 3f c8 65 6c 3d 8f eb f3 3e
       -0.5419929 0.5028824 0.057714254 0.47640654
0001b0 59 8b 60 3e 59 f6 e5 be b2 59 96 3d 30 f8 14 3f
       0.21928157 -0.4491451 0.07341327 0.58191204
0001c0 3c 1d 68 bf 53 0f 78 3e 83 d9 b6 bc 46 28 29 bf
       -0.9066961 0.24224596 -0.022320515 -0.6607708
0001d0 7f 25 b4 3e 5f 02 ee be 12 73 05 bd ae 9a 39 bf
       0.35184857 -0.46486184 -0.032580443 -0.7250165
0001e0 c4 1e 15 3f 2e 3a 80 3f 6c 4c 43 3e 46 27 06 3f
       0.5825007 1.0017755 0.19072121 0.52403677
0001f0 ad b5 56 3d 14 b4 6c bf 25 7c 84 3e 01 43 0d 3f
       0.052419353 -0.9246228 0.25875965 0.55180365
000200 a1 97 c1 3e 3c be 86 3f 89 f6 1a be d1 ae 21 bd
       0.37810996 1.0526805 -0.15133108 -0.03947336
000210 4d 9f 35 be 81 27 5d bf a7 af 1c be 04 cf 34 bd
       -0.1773655 -0.86388403 -0.15301381 -0.044142738
000220 59 3c 7f 3e 80 f9 11 3f 8c ad be bd 9f fa d4 be
       0.24925365 0.5702133 -0.09310445 -0.4159746
000230 97 18 86 be 6d fd 31 bf 4b e3 09 3b 77 86 c7 be
       -0.26190636 -0.6952732 0.0021040018 -0.38969776
000240 3f ab 31 3f 6b 7f 50 bf 70 68 8b bc 7b d3 eb 3b
       0.69401926 -0.81444424 -0.017017573 0.0071968413
000250 7e a6 81 bd cf 99 8d bf 5f dc bc bd d3 cb 77 3b
       -0.06330584 -1.1062564 -0.0922172 0.0037810698
000260 f0 61 0e 3f d3 9e a4 bf 54 34 25 bd 02 b1 df 3c
       0.5561819 -1.2860969 -0.040333107 0.027306084
000270 88 77 ce be eb 55 b3 be c5 28 dc bd 32 60 51 3c
       -0.4032557 -0.35026488 -0.10749964 0.012779282
000280 0c dc 91 3f 67 97 9f bf 43 1d 6b bd 92 e0 5d 3e
       1.1395278 -1.2468079 -0.057400953 0.21667698
000290 46 f6 c8 be de 20 f2 3d 50 20 c9 3c c0 c7 05 3e
       -0.39250392 0.11822675 0.02455154 0.1306448
0002a0 26 8f 20 3e a8 38 b3 3f 82 31 6f be d6 74 bb 3d
       0.15679607 1.4001665 -0.2335873 0.09153144
0002b0 d2 05 f6 3e 19 1b b1 3e 41 48 96 be 35 50 e6 3d
       0.48051316 0.34590986 -0.29352 0.11245767
0002c0 f8 70 b4 3e f5 17 8f 3f 23 e6 04 3e e1 85 8e be
       0.35242438 1.1179186 0.12978415 -0.27836516
0002d0 67 56 d2 3e 0e 0c 12 be 22 63 dd 3d 2d 58 55 be
       0.41081545 -0.14262411 0.10809924 -0.20834418
0002e0 7c 09 8e 3e af 61 3f 3f 49 42 2b be 9e 09 5a 3d
       0.2774161 0.7475843 -0.16724505 0.053231828
0002f0 7a 6f 0c 3f 43 6e df 3e e7 a9 5f be c1 a6 30 3d
       0.548576 0.4363881 -0.21842156 0.04312778
000300 6b 64 3f 3e 44 6f 30 bf 0b 83 07 3e 4b 91 e3 3e
       0.1869065 -0.6891978 0.13233583 0.44446787
000310 de 1a c8 3e d1 e3 be 39 97 8c 2e 3e 73 e7 d8 3e
       0.39082998 0.0003640936 0.17045818 0.42364082
000320 bf 8a 29 3f b0 29 cb be 92 c2 34 be ab a4 4d 3e
       0.66227335 -0.39680243 -0.17652348 0.20082347
000330 4b b6 6a 3e 37 7c 97 be 39 0f 35 be 3d ff 87 3e
       0.22921102 -0.29586956 -0.17681588 0.2656192
000340 2e 39 95 3e 7d b7 0c bd c8 b1 91 be 02 ed cf be
       0.29145187 -0.034354676 -0.2845595 -0.4061051
000350 af bd ab 3e 33 3a 42 bf 9d ca 93 be c1 2b c7 be
       0.33543155 -0.75870055 -0.2886552 -0.3890057
000360 79 fb 54 be 1e 5d 7a bf 22 59 3c 3d 71 65 9d bd
       -0.20799054 -0.97798336 0.04598344 -0.07685364
000370 0a c8 16 3e 5a 97 f4 3e c9 ec 02 3d 16 f0 a2 bc
       0.14724746 0.47771722 0.031964097 -0.019889873
000380 ad 24 de be db b8 0d bf ec 2e 18 be 51 cc c0 3d
       -0.43387356 -0.5536019 -0.1486165 0.0941397
000390 50 62 44 be f2 03 cb be ae ac 0d be d9 ec 29 3e
       -0.19178128 -0.39651448 -0.13835403 0.16594256
0003a0 e1 8d 53 bf 59 ae 78 bf 4e 7a b1 be 47 62 71 3b
       -0.82638365 -0.97141033 -0.34663624 0.003683226
0003b0 3c 1e 0c bf 1f 74 8d bf 3e 98 86 be af 8f 0d 3d
       -0.54733634 -1.1051062 -0.26288027 0.034560855
0003c0 1b 18 0b bd 49 c6 02 3d 10 f1 ff ba bd db d3 b9
       -0.033958536 0.03192738 -0.0019526798 -0.00040408774
0003d0 cb 14 79 3c 58 52 ee bc ff 3b 72 3c 06 9f bf 3c
       0.015202711 -0.029091999 0.014784812 0.023391258
0003e0 1e e2 e3 bc f5 4f 64 3c a5 72 a3 3d c8 6c 4f 3d
       -0.027817782 0.013935079 0.07980851 0.05064085
0003f0 ff df a6 3c 0b c9 71 bd ef 73 97 3d 7f f5 7b 3d
       0.020370482 -0.05902962 0.073951595 0.06151342

fc1.bias f4 [256]
000000 2f 4b 43 be c0 11 ee bd 3a 9c 0c 3e 16 d3 19 bd
       -0.19071649 -0.11624479 0.1373147 -0.037554823
000010 43 7c aa 3d 19 88 2c be 77 e0 21 be 9f ef 9b bd
       0.08324482 -0.16848792 -0.15808283 -0.076140635
000020 98 b0 95 3b 4a bd 3f bd f6 a3 f2 bd ca 1e f2 bc
       0.0045681708 -0.04681138 -0.11847679 -0.029555697
000030 64 2e 83 bd cd ce 3d be cb 25 7d 3d 63 58 d6 bd
       -0.06405333 -0.1853592 0.06180362 -0.10466077
000040 09 03 eb bd 0a 84 b9 3d 2b 82 23 be 88 97 db bd
       -0.11475188 0.090583876 -0.15967624 -0.10722262
000050 fd b7 8c 3d 4b 70 14 be 18 34 f7 3d 56 be 29 3e
       0.068710305 -0.14495961 0.12070483 0.16576514
000060 0b 8e 03 be 18 df d0 3c ac 67 d2 3d 96 6f d4 bd
       -0.12847154 0.025497004 0.1027368 -0.10372846
000070 2b cb ea bd b4 85 8c 3d df ba 77 3c b4 11 28 3e
       -0.114645325 0.06861439 0.015120237 0.16413003
000080 43 d6 4d 3e 27 80 9d 3d 72 6c df 3d 4e 34 25 be
       0.20101266 0.07690459 0.10909356 -0.16133234
000090 ba 25 b6 bc 07 53 60 bd f0 17 cd 3d e3 af 19 be
       -0.022234786 -0.05476668 0.10014331 -0.15008502
0000a0 ea 56 9c 3d cf 10 c7 bd c9 c0 4e 3e 62 26 38 3d
       0.07633765 -0.09720003 0.20190729 0.04495848
0000b0 eb ab 0d bd 54 b7 e5 bd 62 a4 e7 bd 94 ac a0 bd
       -0.034587782 -0.11216608 -0.113106504 -0.07845417
0000c0 ed 6c 55 bd 4c 5a 05 bd c2 db eb 3d 9f 45 29 be
       -0.052105833 -0.032556817 0.11516525 -0.16530465
0000d0 73 19 cf bd 9f d9 20 3e 92 da 41 bc 2a cd 12 be
       -0.10112276 0.15708016 -0.011831896 -0.14336076
0000e0 0a 63 9e bd 93 dd bc bd 79 9b 2a bd 55 d2 3b 3e
       -0.07733734 -0.092219494 -0.041652177 0.18341954
0000f0 bb 11 78 bd 46 75 a1 3d 89 e0 ce 3d 7b b3 61 bd
       -0.060563784 0.07883696 0.101014204 -0.055102807
000100 a3 fb 48 3e 1a fc f5 3d 86 20 7a 3d 88 a2 2f bd
       0.19627242 0.12010975 0.061066173 -0.04287961
000110 6c f6 39 3c e2 dd 1b 3e 4d 44 29 be 84 30 d2 3d
       0.011350255 0.1522136 -0.16529961 0.1026316
000120 40 67 18 3c d4 b5 0f 3e b1 5d 15 bd 59 ab 24 3e
       0.0093019605 0.14034206 -0.036466304 0.16080989
000130 9d 23 33 be 8c 02 ad bd 7b 49 1f be a1 de 29 3e
       -0.17494054 -0.084477514 -0.15555374 0.16588832
000140 39 f4 cc 3c 12 db 45 be f0 5b 1b be 36 4f 3e be
       0.025018798 -0.1932185 -0.1517179 -0.18584904
000150 c6 41 96 3d 36 a6 1c 3e 17 1a 98 bd 47 b6 88 bd
       0.07336764 0.1529778 -0.07426851 -0.06675392
000160 47 ad 97 bc b9 eb 55 3d 7d 20 85 bd 53 4d 3b be
       -0.018515242 0.052226756 -0.06500337 -0.18291216
000170 63 c3 a0 3d 28 ad 7c 3d 42 51 39 bd 84 2c 43 3e
       0.07849767 0.061688572 -0.04524351 0.1905995
000180 07 22 02 3c e0 f8 4c be 57 d1 28 be a9 21 a8 bd
       0.007942683 -0.20016813 -0.16486107 -0.08209545
000190 c2 83 2a bb 70 7c 20 3e ba 18 7e bd b4 42 97 3d
       -0.0026018475 0.15672469 -0.0620353 0.073857695
0001a0 62 cd ce bd 5b 8e 3f bc b4 44 ef 3d 86 c2 e3 3c
       -0.100977674 -0.011691655 0.11683026 0.027802717
0001b0 5f fc 72 bd 7a 68 07 be fa cd 25 be 03 03 1c be
       -0.05932271 -0.13223448 -0.16191855 -0.15235524
0001c0 e5 e2 4a be 45 56 eb bd bc 31 42 be 0d f1 3b 3e
       -0.19813116 -0.11491064 -0.18964285 0.18353672
0001d0 87 08 48 be f1 fa 46 3e 03 27 03 be d9 a1 47 3c
       -0.19534503 0.19431664 -0.1280785 0.012184584
0001e0 00 b0 b5 bc 45 ce 1d 3d f3 bc 79 3d 74 00 93 3d
       -0.02217865 0.038526792 0.06097121 0.07177821
0001f0 26 41 be bc 02 52 6a 3d 60 16 fb bc 14 b0 44 3e
       -0.023224425 0.057207115 -0.030650318 0.19207793
000200 17 57 46 3e 0a 6e 42 3e 62 2f 3a 3e 13 bb b0 3d
       0.1936916 0.18987289 0.18182138 0.086294316
000210 dd 74 1c be 10 e6 90 bc 6f d2 d7 bd dc 2e da bd
       -0.15278955 -0.017687827 -0.10538184 -0.10653469
000220 0e 01 46 3e 59 68 b8 bb 57 19 23 be 24 3a 99 3d
       0.1933634 -0.0056276736 -0.15927635 0.074817926
000230 d9 ad 74 3d 07 b1 34 3d 6d 42 5b 3d 67 a0 04 3e
       0.059736107 0.04411414 0.053530145 0.12951814
000240 2a f8 0d 3d 06 dc 3e 3e a5 e5 0e 3e 71 fa ea 3d
       0.034660496 0.1863862 0.1395479 0.11473549
000250 8f 45 a1 bd 7c b1 4f 3e f6 54 4d 3e ad 39 99 bd
       -0.078745954 0.20282549 0.20051941 -0.07481704
000260 67 73 be 3c 83 94 27 be 16 4c b5 3d 3d cf 86 bc
       0.023248388 -0.16365246 0.08852403 -0.01645624
000270 69 33 32 be 1a d7 40 3b a6 55 05 be 52 ba e0 bd
       -0.17402424 0.0029425086 -0.13020954 -0.10973038
000280 68 e1 3f be 81 cc 19 be 02 a3 e1 3d 0b e6 8e 3c
       -0.1873833 -0.15019418 0.110174194 0.017443677
000290 54 a4 2d 3e 1e 10 ce 3d 46 db 91 bd a6 86 3f 3e
       0.16957217 0.10061668 -0.07121901 0.18703708
0002a0 a2 82 ff bd e7 64 23 3e 81 be 90 bd a7 76 8d bd
       -0.12476088 0.1595646 -0.07067586 -0.06907397
0002b0 1b 8b cd bd 84 db 65 bc 78 1d e2 3d ec 5c 92 bd
       -0.10036298 -0.014029387 0.11040777 -0.0714663
0002c0 b0 c6 0e 3e 96 63 cb bd aa f5 1e 3e fc ca 3a 3e
       0.13942981 -0.09931104 0.15523401 0.18241495
0002d0 29 4a fc bd 59 65 ae 3c 20 cc 22 3e 31 76 b6 bc
       -0.123188324 0.02128856 0.1589818 -0.022273155
0002e0 c4 10 22 be 6b 60 eb ba c0 6c 10 be db cd 18 bd
       -0.15826708 -0.0017957812 -0.14103985 -0.037305694
0002f0 90 4f 2b 3e f4 10 14 3e 1a 16 0b 3e e2 ca f8 bd
       0.1672957 0.14459592 0.1358265 -0.12148072
000300 0a 0e e4 bd 34 22 b9 3b c5 6b 05 3e 91 3f 17 be
       -0.1113549 0.0056498293 0.13029392 -0.14770342
000310 57 34 dc bd 52 20 4c be cc 7e c5 3d bd 2d 08 be
       -0.107521705 -0.19934204 0.09643325 -0.13298698
000320 19 e9 7f 3d b6 85 0d be bc c8 65 bd 83 04 4a be
       0.06247816 -0.13820538 -0.05609964 -0.19728284
000330 8d b3 0e be eb d6 f5 bc c8 b9 b0 bd 6a 89 67 3d
       -0.1393568 -0.030009707 -0.08629185 0.056527533
000340 8a 7c f3 bd 63 27 da 3c 41 6f a9 bc d8 51 80 3a
       -0.11888988 0.02663011 -0.020682933 0.0009790016
000350 e6 c0 c9 3d 45 f2 09 be 83 6f 83 bd 1c 3b db bd
       0.098512456 -0.13471325 -0.064177535 -0.107046336
000360 34 e2 17 3d ab 1f db 3d 35 e7 f4 bd 89 69 f1 3d
       0.03708096 0.106993996 -0.11958162 0.11787707
000370 d0 50 88 3d 89 96 aa 3d 8a 73 3d be 4c ff 26 be
       0.06656039 0.083294936 -0.18501106 -0.16308326
000380 5d 76 94 bc e3 04 37 be 60 ee 3a be f6 69 dd bd
       -0.018122846 -0.17872958 -0.18254995 -0.10811226
000390 87 6e 9c bc 64 22 e6 3c f9 32 18 3e de 27 27 be
       -0.019095672 0.02809257 0.14863195 -0.16323802
0003a0 cf 48 91 bd 6e 18 38 3e 97 c9 41 be e8 7c 3d be
       -0.07093965 0.17978069 -0.18924557 -0.18504679
0003b0 39 a9 8d 3d aa 9c b8 bd ca 7f da 3d 02 61 2d 3e
       0.06917042 -0.09014256 0.10668905 0.16931537
0003c0 1b d1 15 bd bd 60 24 be 33 6a 34 bb bf 7f 13 bd
       -0.03657637 -0.16052528 -0.002752912 -0.0360105
0003d0 e0 dd 60 bc 7c 26 1f bd cd d0 10 3e f6 a0 42 3e
       -0.013724774 -0.03885506 0.14142151 0.19006714
0003e0 8e 71 11 3e b0 47 b3 3d e6 07 0b 3e 10 10 0f be
       0.14203474 0.08753908 0.13577232 -0.13970971
0003f0 c4 bc 73 bd c7 7e aa 3d 37 4a 6e 3d 3b 7d 36 3e
       -0.059506193 0.08324962 0.058176246 0.17821209

fc2.weight f4 [128, 258]
000000 0c c4 83 bc 9c 50 af 3d c3 d5 be 3d 67 68 97 3d
       -0.016084693 0.08560297 0.093181156 0.0739296
000010 89 f8 06 3f c0 ec 98 bd 46 ba 53 3e 92 db d7 3e
       0.52722985 -0.074670315 0.20676526 0.42159706
000020 68 cd f9 be 6a dd 5b bf 63 d8 4f 3d 7e 28 f1 be
       -0.48789525 -0.85884726 0.05074347 -0.47101206
000030 a0 50 5f 3e 66 75 74 be 12 db 97 3d 71 66 d8 3d
       0.218081 -0.23872909 0.07414831 0.10566414
000040 ca 3b a3 3e a2 c4 a1 bd 9b e8 fb bd 8e 97 53 3e
       0.31881553 -0.07898833 -0.12300225 0.20663282
000050 49 e3 1a be 2d b5 b8 3d 35 ee 38 3e 52 fa 8e 3e
       -0.15125765 0.090189315 0.18059619 0.27925354
000060 ff ba 5e be 01 1d 7f 3d 0d 53 bd 3d 61 fd e9 be
       -0.21751021 0.06228352 0.09244356 -0.45701125
000070 d2 ff 58 3b c2 08 48 be e9 16 97 3e e2 dd 3d bc
       0.0033111465 -0.19534591 0.29509667 -0.0115885455
000080 d3 43 ee 3d 99 a5 9d 3e 5a ea db 3e d4 40 7b 3e
       0.1163403 0.30790403 0.42952234 0.24536449
000090 c6 f4 b2 3d 98 ea a8 3e 85 44 81 3d 02 59 dc bd
       0.08738093 0.3299148 0.06311897 -0.107591644
0000a0 74 40 e8 3e 11 85 06 3e fd 06 8f 3e 29 09 60 be
       0.45361674 0.13136698 0.2793502 -0.21878494
0000b0 31 eb 12 3e 69 ab 21 bf 92 ac 89 3e f0 5b 30 bf
       0.14347531 -0.63152176 0.26889473 -0.68890285
0000c0 fc 61 d6 3d e9 15 c0 3d bf 25 ae bd 1b 70 ca be
       0.10467908 0.09379179 -0.08503293 -0.39538655
0000d0 75 04 ea 3e a6 68 3e be 11 be 54 bd 4b 14 b5 bd
       0.45706525 -0.18594608 -0.051939074 -0.08841761
0000e0 b2 0a 64 be 39 c2 5a 3c 71 60 f3 bd 4d 08 f2 3d
       -0.22269705 0.01335197 -0.11883629 0.118179895
0000f0 3b 93 0e 3f e3 c6 ba be 43 d5 84 3e 12 93 d9 3e
       0.55693406 -0.36479864 0.25943956 0.42495018
000100 d8 ba a3 be 33 c1 2e bf 45 99 99 3c ef c6 ee 3e
       -0.31978488 -0.6826355 0.018749842 0.4663615
000110 e4 4a bc 3e ed a4 a4 3d 5c b7 95 3d dc c7 48 bf
       0.36775887 0.080392696 0.07310364 -0.7842996
000120 a8 65 7d 3b a5 39 32 bf 06 1c 29 3c d7 8a 80 3e
       0.0038665328 -0.6961921 0.010321623 0.25105926
000130 18 f0 4c be f0 e8 36 be 46 4f 9a 3d 44 45 a7 3e
       -0.20013463 -0.17862296 0.075346515 0.32670033
000140 d9 5a d5 3e bd 4c c8 bd ae 1b 12 3e 00 f5 fb 3d
       0.41670874 -0.09780262 0.14268371 0.123025894
000150 26 e5 f1 be a3 e8 ee bb 94 58 b2 be 6f cb ba be
       -0.4724514 -0.007290916 -0.34833205 -0.36483333
000160 99 3a 69 3c ae 1a 5f be 61 ae 63 3a f8 e0 a9 3e
       0.014235162 -0.21787521 0.0008685347 0.3317945
000170 d5 f4 21 bc 9e 86 71 bc 17 aa 1d be 5f 21 c2 bd
       -0.009885033 -0.014741568 -0.15396915 -0.09479021
000180 cf d9 c2 3e f6 01 93 bd ed 44 a6 bd 72 ca 17 be
       0.380568 -0.071781084 -0.08118615 -0.1482332
000190 54 9b d1 bd aa 28 93 be ba 31 82 3e 1e ac 23 bd
       -0.102347046 -0.28741962 0.25428563 -0.039959066
0001a0 cb ba c1 3c 30 ec f2 3d aa 75 43 bf 35 84 cc 3e
       0.02364864 0.118614554 -0.76351416 0.39944616
0001b0 ed 00 91 bf 74 4d 25 3d bf f2 3e be 01 48 06 bf
       -1.1328408 0.04035707 -0.18647288 -0.5245362
0001c0 48 a0 53 be c7 4a 8f 3e 91 18 9f bd 03 2b bc 3e
       -0.20666611 0.27986738 -0.077683575 0.36751565
0001d0 b1 9f 9b be c2 b0 e0 bd fb 6d f5 bd ee e6 fb 3d
       -0.30395272 -0.10971214 -0.11983868 0.12299906
0001e0 f7 e1 04 bf 9b cd 05 be d6 00 7f be ab f0 e0 3d
       -0.51907295 -0.13066714 -0.24902663 0.10983404
0001f0 d4 f3 d9 bc b0 70 35 be 4a d7 a2 bc 34 d3 da be
       -0.026605524 -0.17718768 -0.019878048 -0.4273926
000200 b8 d0 5f 3d d3 d4 57 3d 17 b0 69 3d 14 ea 46 bf
       0.05464241 0.0526932 0.057052698 -0.77700925
000210 62 6e 03 3e 55 f8 a0 bd 2d 05 11 bf 52 c2 a8 bd
       0.12835076 -0.078598656 -0.5664852 -0.08240189
000220 4f 4d 14 be 64 02 19 bd be f3 eb 3d 58 6d ad be
       -0.14482616 -0.037355796 0.115210995 -0.33872485
000230 52 4d 42 be 8d 80 24 bf 5b a5 c0 3e 8a aa 33 3e
       -0.18974808 -0.6425865 0.37626156 0.17545524
000240 0d 21 14 be 41 da 0c be 05 30 7c 3d a6 3b e9 be
       -0.14465733 -0.13755132 0.061569232 -0.4555332
000250 20 d4 3f be 0a 25 be be cc 3a d1 bc 19 7d c8 bd
       -0.18733263 -0.37137634 -0.025540732 -0.097894855
000260 f9 8f 89 be ec bc 59 bc 6c 7f f2 bd c1 4f 05 be
       -0.26867655 -0.013289671 -0.1184071 -0.13018705
000270 d4 df 88 3e f5 ec 49 bd dd 52 5c 3e 3f a9 70 bf
       0.26733267 -0.049298245 0.21515985 -0.9400825
000280 97 53 21 3e ba ae a1 be 28 c6 b9 be 34 8f 5b 3e
       0.15754543 -0.31578618 -0.36283994 0.21441346
000290 fd 53 2c 3f 16 e9 34 3e fe 11 9c 3e a5 37 16 be
       0.67315656 0.1766704 0.30482477 -0.14669664
0002a0 65 bc a0 be d0 96 b3 be 91 1c 56 bf 85 36 31 be
       -0.31393734 -0.35075998 -0.8363734 -0.17305954
0002b0 f0 58 50 be 11 80 70 3e c9 25 10 be 87 12 cd 3d
       -0.20346427 0.23486353 -0.14076914 0.100132994
0002c0 79 b4 b0 be d0 07 aa be 74 b7 30 bf 59 50 fd 3e
       -0.3451269 -0.33209085 -0.6902993 0.49475363
0002d0 11 f2 ff 3c 29 b0 10 be dc ff 24 3e 0b fc a6 bd
       0.031243356 -0.141297 0.16113228 -0.08153542
0002e0 e0 42 ec 3d ae ab f4 3d 4b 6e 12 3f 6b bf ea be
       0.11536193 0.11946808 0.57199544 -0.45849165
0002f0 e4 40 ce 3b 7f 8a 35 be 4c ab 80 3e cf f9 a4 3e
       0.0062943567 -0.17728613 0.2513069 0.3222184
000300 42 83 04 bd 59 a4 a3 be 57 b0 a7 be 8a 96 26 bf
       -0.03235174 -0.31961325 -0.32751724 -0.65073454
000310 b0 4d a4 bc 1d 3a 21 bf ff 9d 9d 3e 4c 4f 7b be
       -0.020056576 -0.629793 0.30784604 -0.24541968
000320 93 5c 91 3d 5b b3 6d bd b5 28 25 bd 2a 4f f1 3c
       0.07097735 -0.058032375 -0.040322024 0.029456694
000330 d3 63 d5 3e 82 61 8a bc e5 31 37 3d c3 be 55 bf
       0.41677722 -0.016892198 0.044725318 -0.83494204
000340 0e ba 7b bd 48 bb 3c 3e d1 5e 88 3d fc c4 fa be
       -0.061456732 0.18430817 0.0665871 -0.48978412
000350 84 69 ca be 4e a1 84 be ff 6d ad bd 32 62 9d bc
       -0.39533627 -0.25904316 -0.08468246 -0.019211862
000360 79 38 a4 3e bf 45 af be 78 69 78 3e 42 61 8d be
       0.32074335 -0.342329 0.24258983 -0.27613264
000370 8a 58 af 3d 79 e4 a2 3e 20 28 29 3c 7b d2 b3 3e
       0.08561809 0.31814936 0.010324508 0.3512152
000380 51 65 00 be 4f e9 04 3e 3e a3 8f be 5c 42 d2 be
       -0.12538649 0.12979625 -0.2805423 -0.41066253
000390 59 2f 8e be 5a 5f af 3d 30 39 17 bf ed 9b a9 be
       -0.27770498 0.08563109 -0.59071636 -0.33126774
0003a0 38 d6 88 3d 31 36 06 3f 53 f9 c7 3d f4 34 08 bd
       0.06681484 0.5242644 0.09764352 -0.033253625
0003b0 c6 78 7f 3e a6 95 ce 3e 92 54 40 bb 18 13 51 bc
       0.24948415 0.40348548 -0.0029347283 -0.0127609
0003c0 e9 e5 af be cd 49 03 3f a5 a9 41 bf 0b 29 68 be
       -0.34355095 0.51284486 -0.7564948 -0.22671907
0003d0 58 da 32 bd bd 6c af be 00 71 93 bd 80 e9 2c 3e
       -0.04366526 -0.34262648 -0.071992874 0.16885948
0003e0 a3 de 17 3e 46 39 91 be 1e 7b 65 3e 6c 5b b3 bc
       0.14831023 -0.2836401 0.22410247 -0.02189418
0003f0 8d 1f 18 3f 53 be f0 3e 57 d3 c8 bb 63 62 e6 3d
       0.5942314 0.47020206 -0.0061287093 0.112492345

fc2.bias f4 [128]
000000 dd b7 2a bd 25 7a 41 bd ff 8e e5 bc 05 55 09 bd
       -0.041679252 -0.047235627 -0.028022287 -0.033528347
000010 7a 5d 66 bd 58 49 9f bc d1 1d 22 3d 51 01 60 3d
       -0.05624149 -0.019444153 0.039579216 0.054688755
000020 b5 73 6d 3d 0e cf 82 bc b6 c3 05 bd 0d 96 36 3d
       0.057971675 -0.015967872 -0.032657348 0.044576693
000030 6d d4 b4 3c 1e 3a 5f bd 9f 6f 4f 3a ac c7 ee bc
       0.022073949 -0.054498784 0.0007913056 -0.029147945
000040 51 22 1a 3d 2f 0d c2 3c 36 d8 6b 3d b9 93 8d 3d
       0.037630383 0.023687927 0.05757924 0.069129415
000050 36 04 42 3d 12 e1 58 bd c4 2d 0e 3d c0 9e c1 bc
       0.047367297 -0.05294902 0.034711614 -0.023635268
000060 78 52 0e bd 9f 63 53 3d 66 27 66 3c 15 77 67 3d
       -0.034746617 0.051608678 0.014047479 0.05651005
000070 0f 66 c6 bc d7 ab 9f bc c9 45 d4 3c 6e 68 91 3c
       -0.024218587 -0.01949112 0.025912182 0.017749991
000080 ba 23 1e 3c c5 be ef 3c ff 20 26 bb fe 67 5b bd
       0.009652073 0.02926577 -0.0025349257 -0.05356597
000090 e8 79 4b bd 61 db 4c bd 4d 75 3c bd e5 44 46 3d
       -0.049676806 -0.050013904 -0.046010304 0.048405547
0000a0 2c d8 99 3c df 80 11 3d 77 4a 24 bd 31 09 12 3d
       0.018779837 0.03552329 -0.040110078 0.035653297
0000b0 97 8b 02 3c 24 ad 63 bd da db 73 3d ad 8a 18 3d
       0.007967851 -0.05558504 0.05953584 0.037241627
0000c0 a7 28 6d bd 87 fd 5c 3d 1a 28 45 bd f6 fe df 3c
       -0.057900097 0.05395272 -0.048133947 0.027343255
0000d0 c3 e4 80 bd 2c 87 2a 3d e1 1c b2 bc 30 b3 ed bc
       -0.06293633 0.041632816 -0.021742286 -0.029016107
0000e0 5f 4e 6d 3c 99 73 1f 3d 59 a1 76 3d 11 65 33 bd
       0.014484017 0.038928602 0.060212467 -0.043797556
0000f0 bb 2d 2f 3d e5 b5 c9 3c 7b 5e 1d 3d 43 71 81 3d
       0.04276822 0.024622867 0.03842018 0.06320431
000100 4b 30 3c 3d e7 80 49 3a 2e a8 af 3c d2 c7 85 bc
       0.045944493 0.00076867494 0.021442499 -0.016330633
000110 22 a3 23 3d f5 d3 27 bc 20 3a 98 bc 22 fa 18 bc
       0.039950497 -0.010243406 -0.018582404 -0.00933698
000120 38 e3 2a bd a6 ee 42 3c 33 7a 41 bd 69 64 1a 3d
       -0.0417206 0.0118977185 -0.04723568 0.037693415
000130 b7 06 92 3c 4b cf 81 bb dc ba f1 3c aa 0f 31 3d
       0.017825468 -0.003961479 0.029508047 0.04322783
000140 d6 ea 13 3d 5b be b6 bc 76 52 54 3c bf cb e7 3c
       0.03611263 -0.022307565 0.012959113 0.028295396
000150 b1 64 70 bd a5 f3 99 bc b7 48 c6 bc df 00 f1 3c
       -0.058689777 -0.018792937 -0.024204595 0.02941936
000160 f2 dd b1 3c b2 76 2a 3c 55 0a 55 bd 76 0f 37 3d
       0.021712277 0.010404276 -0.052011807 0.04469248
000170 67 c9 08 3d d4 58 47 bd a4 12 1e 3c 98 18 59 3d
       0.033395197 -0.048668697 0.009647999 0.05300197
000180 65 02 01 bd c4 20 63 3d 5d 33 4b bb 6e 86 93 3b
       -0.031496424 0.05545117 -0.0031005957 0.0045021093
000190 51 27 1a bd 12 b7 3a 3d 0b 2c 2a 3d 5d 13 9e 3b
       -0.03763515 0.045584746 0.04154591 0.0048240856
0001a0 30 df 00 bc 31 cd a9 ba 3d 97 9f bc 12 8f b2 bc
       -0.007865712 -0.0012954829 -0.019481296 -0.021796737
0001b0 f9 1e 59 3d 01 ab 13 bd eb f3 42 3d f7 51 1e bd
       0.053008053 -0.036051754 0.0475959 -0.038652387
0001c0 16 6e 30 3d fc 9c 81 bd 3c 32 b7 bc 99 e8 bf 3b
       0.043073736 -0.063287705 -0.02236282 0.005856585
0001d0 a7 b6 85 bc 35 b8 cd 3c 5e 5b b3 3c 40 1e 83 bc
       -0.016322447 0.02511225 0.021894153 -0.016005635
0001e0 a8 c9 5f bd 45 69 0f bd 98 b1 29 bb fc b6 ff 3b
       -0.054635674 -0.035012502 -0.0025893208 0.007803796
0001f0 7e 03 03 bd 75 0a bb 3b 50 8a 43 3d 51 82 68 3d
       -0.031985752 0.0057080337 0.047739327 0.056764904

fc3.weight f4 [128, 128]
000000 7c 27 0c 3d 00 28 a5 3a d0 49 19 3c 08 5b b8 3c
       0.034217343 0.0012600422 0.009355977 0.022504345
000010 f0 fc 49 bc 38 c7 17 3c 14 a1 d5 3c dd 06 19 bd
       -0.012328371 0.009263806 0.026077785 -0.03736006
000020 63 a1 95 3d a4 7b 03 bd 72 32 5f 3d a4 d4 cb 3c
       0.07306173 -0.032100335 0.054491468 0.024881668
000030 64 39 c1 3c df 82 0d bd 77 a5 80 bd d0 f6 a3 3b
       0.023586936 -0.034548637 -0.0628156 0.0050037876
000040 34 29 fb 3c b7 d4 9c 3d f3 23 ae bd 9b e9 ac 3d
       0.030659296 0.0765776 -0.085029505 0.08442994
000050 68 cb ab 3c 5d 67 34 bd 34 07 04 3d 25 ba 8b bd
       0.020971015 -0.044043887 0.032233432 -0.068226136
000060 4b 2a 91 3d c0 a4 ac bb d8 5f 0c bc 08 52 5d bc
       0.07088145 -0.005268663 -0.008567773 -0.013508327
000070 4c e2 97 bc 6d 1d 9a 3d 04 4c 88 bd 22 21 4c 3d
       -0.018540524 0.07525144 -0.06655124 0.049836285
000080 60 fe 37 3c fc 33 94 bd 20 bd ea 3b ca 90 0f 3d
       0.011230081 -0.07236478 0.0071636587 0.03505019
000090 78 32 04 bc 12 90 7e 3d ec 7c b5 3c 88 bb 84 3c
       -0.008068673 0.062149115 0.022154294 0.016202703
0000a0 24 2c af bd 0e 85 2a 3d 4f 21 80 bd d6 f2 79 3d
       -0.08553341 0.041630797 -0.06256353 0.061022602
0000b0 0e 19 64 3d 0c 9f d3 3c b4 64 6c bd 38 e4 4f bc
       0.055687957 0.025832675 -0.057713225 -0.012688689
0000c0 37 82 9e 3d 7b 81 83 3d 60 0c 40 3b 5f 67 0b bd
       0.0773968 0.06421181 0.002930425 -0.03403413
0000d0 d2 e1 7d 3d 16 1a 60 3d 84 de a4 3c cf 49 5c bd
       0.061982937 0.054712377 0.020125635 -0.053781327
0000e0 1d f8 9e 3d 1a f4 72 3d 37 2e 2f bd 33 d5 3a bd
       0.077621676 0.059314825 -0.042768683 -0.04561348
0000f0 38 55 72 bc 8b 83 88 bd 44 19 9e bd a1 24 9f bd
       -0.014790826 -0.06665715 -0.07719663 -0.07770658
000100 e0 0d b5 bb 51 69 b3 3d ec 0f ae 3c 1e 2a 01 3d
       -0.0055253357 0.08760322 0.021247827 0.031534307
000110 d6 9a 17 3d a7 12 96 3d 46 a7 53 bd e0 1d ba 3c
       0.037012897 0.073277764 -0.051673196 0.022719324
000120 69 9b 87 3d 54 83 cd bc 44 0a bc bc 54 ce c4 3c
       0.06621439 -0.025087036 -0.022954114 0.024024166
000130 a8 07 a6 bc 7c 81 a8 bc 50 b6 34 3c 88 9c 80 3c
       -0.020267323 -0.020569555 0.011029795 0.01569964
000140 0b e2 ac 3d 28 4a 0d 3d 10 66 b6 3b dd 0d 6a bd
       0.08441552 0.03449455 0.005566366 -0.057142127
000150 76 9a 6b 3d f6 a7 e7 bc 07 ea af 3d fe 61 21 3d
       0.057520352 -0.028278332 0.08589559 0.039400093
000160 ac 36 a8 bc 83 e4 a7 3d 4f 8e 98 bd ac e4 67 bd
       -0.020533882 0.08197882 -0.07449018 -0.056614563
000170 72 11 0b bd bb f5 92 3d 40 4f 85 3b cd eb 8b 3d
       -0.033952184 0.071757756 0.004068285 0.06832085
000180 e0 f1 9f bd a7 15 a6 3d 94 5d 93 bc e7 29 ad 3d
       -0.07809806 0.081095986 -0.017988957 0.08455258
000190 e0 08 c0 bc 22 4d 37 3d b2 31 69 3d 80 ea f1 3a
       -0.023441732 0.044751294 0.05693216 0.0018456727
0001a0 50 50 aa bb 65 49 a6 3d 20 af 8b 3b db 31 4b bd
       -0.0051975623 0.08119468 0.00426282 -0.049608093
0001b0 c0 ae 59 bb c2 93 58 3d 69 da 2e bd b8 cb 68 bc
       -0.0033215731 0.052875288 -0.04268876 -0.014208727
0001c0 48 b6 87 3c b8 12 61 3c f0 b2 0b 3c 2c 63 03 3d
       0.01656641 0.013737373 0.008526549 0.032077
0001d0 2e 0c 32 bd ab 65 31 bd 61 53 3c bd 50 cd 0d 3c
       -0.043468647 -0.04330985 -0.045977954 0.008654907
0001e0 07 28 91 3d 9a b0 41 bd 1a b7 77 bd 52 ec 62 3d
       0.07087713 -0.04728756 -0.060477354 0.055401154
0001f0 e0 41 2b 3b bb d2 9c 3d 64 26 d2 bc ce 78 07 bd
       0.0026131794 0.07657381 -0.025653072 -0.033074193
000200 e3 6f 05 bd 79 24 8f 3d 02 3a 16 3d ca 8a 58 3d
       -0.032577407 0.069893785 0.036676414 0.052866735
000210 31 1f 24 bd 6a 9e 3b bd d9 02 8e 3d 6d 63 a1 bd
       -0.04006881 -0.045805372 0.06934137 -0.07880292
000220 74 cb a8 3c c0 0a 99 3c b0 34 3e 3c 3e be 79 3d
       0.020604827 0.018681884 0.011609241 0.060972445
000230 86 67 87 bd 76 70 84 bd df 7b 8a 3d d6 3f 61 3d
       -0.066115424 -0.06466763 0.06761908 0.05499252
000240 86 ec 77 bd f0 c5 f1 3c ec f6 ea bc 5c d8 ce 3c
       -0.0605283 0.02951333 -0.028682195 0.025249653
000250 70 30 42 3c e3 c4 94 3d 48 ee 5c bc c2 3b 59 3d
       0.011852369 0.07264116 -0.013484545 0.053035505
000260 9f e1 8b 3d b8 fc 6e 3c b0 81 b1 3c b4 42 81 bd
       0.06830143 0.01458662 0.021668285 -0.06311551
000270 bc 11 c3 bc 2b e2 91 3d 80 c1 db bc ce 1f 77 bd
       -0.023812167 0.07123216 -0.026825666 -0.060333066
000280 16 26 ed bc 02 0e 78 bd 80 56 4b ba 2e bd 2e 3d
       -0.028948825 -0.060560234 -0.0007756725 0.042660885
000290 00 9c 42 bc 5f ca 77 bd a8 2b 8d bc ef 01 5f bd
       -0.011878014 -0.06049573 -0.017232731 -0.054445203
0002a0 9a 2d e0 bc d0 9c 0b 3d 06 f2 b2 bd e2 84 58 3d
       -0.027365495 0.034085095 -0.087375686 0.052861102
0002b0 4e a1 72 3d f5 ae 8d 3d 55 4d a0 3d 0e 86 3f bd
       0.059235863 0.06918136 0.0782725 -0.046758704
0002c0 7f 1d 55 bd b6 f0 36 3d 69 9d af 3d 1a 88 1f bd
       -0.052030083 0.044663154 0.085749455 -0.038948156
0002d0 f5 fa 3d bd 63 71 89 3d b6 ef 66 3d 14 46 b7 bc
       -0.04638191 0.0671108 0.05638095 -0.022372283
0002e0 09 a8 b4 bd 9a b0 06 bd 59 2f ac 3d 59 30 b3 3d
       -0.08821113 -0.032883264 0.08407468 0.08749456
0002f0 b3 2c 97 bd f3 3a 4f bd f8 2c c9 bc e2 92 e3 bc
       -0.073815726 -0.050593328 -0.024557576 -0.02778
000300 b0 d3 ca bc 5b 00 7c bd 3b db 9d bd 3f 43 4f bd
       -0.024759144 -0.061523777 -0.077078305 -0.05060124
000310 99 dc 92 bd 68 46 7d 3c 38 ad 73 bc 40 60 23 3c
       -0.07170982 0.015458681 -0.014872842 0.009971678
000320 f3 b0 ae 3d c0 ce b1 bd 41 03 82 3d a4 c9 e2 bc
       0.08529844 -0.086820126 0.06348277 -0.02768404
000330 55 f6 a2 bd 08 e7 21 3c a6 5c 3b 3d 78 e9 78 bc
       -0.0795714 0.009881742 0.045742653 -0.015192382
000340 a9 3c 41 bd 7e b4 fc bc 0e b5 4e 3d 87 9e b1 3d
       -0.04717699 -0.030847784 0.050465636 0.08672815
000350 99 64 a9 3d 1e 5b 1b 3d 70 c9 a4 3b d7 50 ae bd
       0.082711406 0.037928693 0.005028896 -0.08511513
000360 34 e5 9d 3c 80 c8 7d 3a 81 99 a6 bd 5e 87 7b 3d
       0.019274332 0.0009681061 -0.08134747 0.061408393
000370 8a f4 60 3d f0 b4 bb 3b d0 60 0a bd 00 d3 b4 3b
       0.05492071 0.0057283565 -0.033783734 0.005518317
000380 4e 2f 25 bd f8 d7 a2 bc a8 0c 7f 3c a6 af 13 3d
       -0.040328316 -0.019878373 0.015566982 0.036056183
000390 98 34 a0 bc ce 91 65 3d 3b aa a0 3d 2a 37 77 3d
       -0.019556329 0.056047253 0.07844969 0.060355343
0003a0 03 2e a2 3d 0f 3f ad 3d 96 9f 0d bd 7b 41 b0 3d
       0.07918932 0.08459293 -0.03457602 0.086062394
0003b0 6a c7 09 bd 20 1e d9 3b 10 d2 c0 3b 9e dc 5f bd
       -0.03363744 0.0066259056 0.0058844164 -0.054653756
0003c0 78 b6 2a bd 00 28 58 bd 58 02 e2 3c 47 14 a0 3d
       -0.041677922 -0.052772522 0.027589008 0.078163676
0003d0 d4 a9 99 bd f6 56 63 3d 4d f5 02 bd b2 e2 4e 3d
       -0.07503095 0.055502854 -0.03197222 0.050509162
0003e0 f6 b4 77 bd c2 2a 42 3d b0 20 1c bc 97 ab 38 bd
       -0.060475312 0.04740406 -0.009529278 -0.045085516
0003f0 b1 4a 5c bd c7 13 83 3d 9b b3 87 3d b6 97 6a 3d
       -0.05378217 0.064002566 0.06626054 0.05727359

fc3.bias f4 [128]
000000 4b 95 b3 bd d6 17 35 3d 48 9f 21 bc e0 46 a3 bd
       -0.0876871 0.044212185 -0.009864636 -0.07972503
000010 f0 64 de bb 60 13 29 bd a4 2a 60 bd d2 9b 19 3d
       -0.006786935 -0.041278243 -0.054728165 0.037502117
000020 99 c9 62 bd 3c 8a a4 3c 1c c5 b3 bd f6 eb 66 3d
       -0.05536804 0.020085447 -0.0877783 0.056377374
000030 3c 74 6f bd 50 56 b1 3b 3a 9b 55 3d 81 a9 3e bd
       -0.05846046 0.0054119006 0.05214999 -0.04654837
000040 68 cc 33 bc 96 53 1c 3d 69 ee 8f bd 4c 61 f8 3c
       -0.010974027 0.03816565 -0.07027895 0.030319832
000050 00 20 71 39 4c 32 c9 bc 6d 4b 95 bd 6e 84 29 3d
       0.00022995472 -0.024560116 -0.07289777 0.04138606
000060 a4 2e b3 3c cc 7f 2b bd 88 4b 6f bc a6 87 42 3d
       0.021872826 -0.041869923 -0.01460541 0.047492646
000070 3a 1f 2a bd 47 87 9b bd 24 58 3c bd 00 b8 31 bd
       -0.041533686 -0.075941615 -0.045982495 -0.043388367
000080 2b 7f 8b bd 3b a8 62 bd 1d c1 86 3d 07 d5 63 bd
       -0.06811365 -0.05533622 0.06579802 -0.05562308
000090 16 92 ac bd 22 41 04 bd 9e e0 74 bd 4b 56 80 3d
       -0.08426301 -0.032288678 -0.059784524 0.06266459
0000a0 e6 1c 30 3d ca 46 15 bd 00 54 42 3c 88 1d 88 bd
       0.04299631 -0.036444463 0.0118608475 -0.06646258
0000b0 48 a4 ed 3c 6d df ae bd 1a 0e a0 bd 83 8f 06 bd
       0.029009 -0.08538709 -0.0781519 -0.032851707
0000c0 33 ae 88 3d 5e 40 72 3d d2 d4 40 3d 04 3f 87 3c
       0.06673851 0.059143417 0.04707796 0.01650954
0000d0 ef 96 90 bd 3a 50 10 3d 22 0a 5e 3d 50 02 a9 3c
       -0.07060038 0.03523276 0.054208882 0.020630985
0000e0 00 95 09 ba 18 e0 02 bc 74 65 8d bc f7 d9 42 bd
       -0.0005248338 -0.007987998 -0.01726029 -0.04757115
0000f0 40 31 c2 3b 5a bc 73 3d 4e 0e 65 3d 88 0b 97 bd
       0.005926281 0.059505798 0.055921845 -0.07375246
000100 1f 7d a0 3d 5c c5 ae bd dd 8d 99 3d c7 bc 80 3d
       0.07836365 -0.08533737 0.074977614 0.062860064
000110 ef 50 95 bd f9 93 b4 3d 31 22 ab bd 60 b2 20 bc
       -0.072908275 0.08817286 -0.08356131 -0.009808153
000120 8c da 9f 3c 70 3c 54 bd 54 81 4d bd d0 c0 49 bc
       0.019513391 -0.05181545 -0.050172165 -0.0123140365
000130 7a 64 7b 3d 90 df fa 3c 74 98 e1 3c aa 69 64 bd
       0.06137512 0.030624181 0.027538516 -0.05576483
000140 e4 6f 95 3c 77 04 b1 3d f8 e5 b3 3c 54 1c f9 3c
       0.01824183 0.0864343 0.021960244 0.030409016
000150 ef d5 9d 3d 7c 0f 9d 3c a8 b4 5e bc da 76 4d 3d
       0.0770682 0.019172423 -0.0135928765 0.050162174
000160 19 8c 9f 3d 97 3e ad 3d d6 0c 1a bd dc fd 64 bd
       0.077903934 0.08459204 -0.037609898 -0.05590616
000170 76 48 18 3d ef 9c 35 bd 80 8e f4 bb 94 8f 95 3c
       0.03717848 -0.044339117 -0.0074632764 0.01825694
000180 52 6d 16 3d 00 74 13 bd 5b 17 33 bd c8 e4 91 bd
       0.03672535 -0.035999298 -0.043723445 -0.07123715
000190 e0 2c 83 3b 52 d9 0e bd d4 45 87 3c e0 c8 00 bb
       0.0040031523 -0.03487522 0.016512789 -0.001965098
0001a0 52 ae 9a bd 75 5e 41 bd 20 d7 6e 3c 36 90 38 bd
       -0.0755278 -0.047209222 0.014577657 -0.045059405
0001b0 a0 a5 a9 bd 00 6e e8 39 00 43 c1 3c 6c b8 bc 3c
       -0.082835436 0.00044332445 0.023591518 0.023037158
0001c0 be 3d 7f 3d 2e 14 12 3d 2d 59 47 bd c8 9a 3b bc
       0.06231474 0.035663776 -0.04866903 -0.011450477
0001d0 e8 10 a8 bd d1 bc 92 bd 1d c7 16 bd 40 39 a0 bc
       -0.082063496 -0.0716492 -0.036810983 -0.019558549
0001e0 d7 68 9c 3d 22 2a 7c bd d8 a7 1b bc d4 dc d4 3c
       0.07637184 -0.06156362 -0.009500466 0.025984205
0001f0 e0 46 a2 3c c8 a9 37 3c 18 f6 33 bc 5c 6b 13 bd
       0.019809186 0.011209913 -0.010983966 -0.035991058

fc4.weight f4 [1, 128]
000000 97 21 28 be 43 ff 24 ba ba 1f 24 bf aa 9d 93 bf
       -0.16419064 -0.00062941405 -0.6411091 -1.153249
000010 0c d5 b4 3d 06 a1 2c be 4d 14 ac be d6 85 fb 3d
       0.08829698 -0.168583 -0.33609238 0.122813866
000020 c7 70 8f 3e 8e f3 84 be 1b f7 4e bf 71 5d 2b be
       0.2801573 -0.25967067 -0.80845803 -0.16734864
000030 43 bc eb 3d 8d 09 96 bd a6 7b 5e bd 87 cf c6 be
       0.115105174 -0.073260404 -0.05431714 -0.38830206
000040 c4 70 31 bf b8 f0 27 bf 1b 67 76 be 8d 74 0f bf
       -0.6931269 -0.6560168 -0.24062769 -0.5603722
000050 a9 0e da be 16 fe 48 bf db 34 ba bc 31 91 90 3d
       -0.4258931 -0.78512704 -0.022730282 0.07058943
000060 4a 02 ce 3e 6d 48 1b 3d d2 8d 22 3e 95 ed 0f 3e
       0.4023612 0.037910867 0.15874413 0.14055474
000070 ea c3 95 be 17 fb 1e be f0 48 63 be 54 23 1a be
       -0.29251033 -0.1552547 -0.22195792 -0.15052539
000080 5d 57 f7 bd b3 fc fe 3d 70 6d 60 3d 6a 98 2a 3e
       -0.1207721 0.12450542 0.054791868 0.16659704
000090 db b0 20 be 61 ef 2e 3e f4 6c a3 bc 73 cf b6 be
       -0.15692465 0.17083503 -0.019949414 -0.35705146
0000a0 2c b4 1b bf fa 5a 13 be 69 db 3c bf 9d 9b 3d bf
       -0.60821795 -0.14390174 -0.73772293 -0.7406557
0000b0 e0 4f b3 bd ba ef 03 bf 09 00 48 3f 4e bb 36 bf
       -0.08755469 -0.5153767 0.78125054 -0.71379554
0000c0 58 fa 1c bf ff d5 b1 3d cb 9d a2 be e1 dc f8 be
       -0.61319494 0.08683395 -0.3176101 -0.48606017
0000d0 5b d3 9e bf a3 09 33 bf 8a 33 74 be ba 10 25 be
       -1.240825 -0.6993658 -0.23847786 -0.16119662
0000e0 fc e4 f0 bd be 6a 13 3e 3d 29 8e 3d d7 2a 64 bf
       -0.11762425 0.14396188 0.06941459 -0.8912787
0000f0 50 ef ed bb 82 a4 19 bf a7 7f b2 bd 40 22 2c 3e
       -0.0072611943 -0.60016644 -0.08715754 0.1680994
000100 f8 49 53 3e 27 72 28 bf 18 f6 e6 bd 86 5f 85 be
       0.20633686 -0.6579918 -0.112774074 -0.2604944
000110 c8 0b d6 be 10 c0 a8 3d b6 27 ae 3d ce bf c8 bd
       -0.41805863 0.08239758 0.08503668 -0.09802209
000120 8b 88 ab 3d 33 46 cb be f8 07 61 3d a4 c6 9b 3d
       0.08375653 -0.39701995 0.05493924 0.07606247
000130 d3 e3 a0 bf 19 b4 83 3d 17 d7 ad ba 5c 83 a9 bf
       -1.2569526 0.06430835 -0.0013262954 -1.3243213
000140 0d 12 0b be 03 6d 2b be 6b 6f 68 3d 64 cb 9d bd
       -0.13581105 -0.16740803 0.05674688 -0.07704809
000150 5b 20 89 3d 34 da 77 bf 15 a3 0b be 07 cf 99 be
       0.066956244 -0.96817327 -0.1363643 -0.30040762
000160 9b 98 5a 3d f9 b5 69 be 4a 2b ad be ee 11 29 bf
       0.053368192 -0.22823323 -0.3382209 -0.66042984
000170 96 76 fa bd 20 bf 78 3d 3c 34 0f 3e 8f 1d f9 bd
       -0.1222965 0.060729146 0.1398477 -0.12163841
000180 66 c5 6c 3e 35 75 2d bf 47 e5 22 3e 6f 95 dc be
       0.23122177 -0.6775697 0.15907775 -0.4308276
000190 97 c7 6c 3e c4 ad ff 3d 18 ef 24 bf ad 50 82 bd
       0.23123012 0.12484315 -0.6442733 -0.06363044
0001a0 3a 2b aa be 4c 9d fb 3d 5f a1 03 3e b6 c6 28 be
       -0.33236104 0.122858614 0.12854527 -0.16482052
0001b0 6c 23 9a be 7a 06 05 bf cc 6b 52 3e ff 98 a9 3e
       -0.3010515 -0.5196301 0.20548934 0.3312454
0001c0 a7 4b 7b bf c5 91 05 be 62 49 cc 3d 6a 09 7f be
       -0.9816231 -0.13043888 0.09974934 -0.24905935
0001d0 42 d0 20 bf 5d a7 e2 be 39 cf fc bd b6 0b 1f be
       -0.62817776 -0.44268313 -0.12344212 -0.15531811
0001e0 c1 8b 76 be 5a 1c e8 be 6f 28 61 bf 61 ed eb be
       -0.2407675 -0.4533413 -0.8795232 -0.46079543
0001f0 f9 9f a5 3d 1c 89 cf 3d 85 67 c0 be 86 03 4b 3e
       0.08087153 0.101335734 -0.3757898 0.19825563

batch_norm_input.weight f4 [256]
000000 0c 05 23 3f 35 48 93 3e 5e 17 0b 3f fc 59 02 3f
       0.63679576 0.28766027 0.5433253 0.50918555
000010 ed 0a d1 3e 04 82 c0 3e 16 25 04 3f cf fd cd 3e
       0.40828648 0.37599194 0.5161909 0.40232703
000020 9c d8 c0 3e 41 19 97 3e 09 13 a9 3a 8e 21 07 3f
       0.3766526 0.29511455 0.001289935 0.52785575
000030 5f 63 ed 3e 4e 78 3f 3f f1 5a c8 3e bf 60 a8 3e
       0.46364877 0.74792945 0.39131883 0.3288631
000040 2b 0f 85 3e df 60 c5 3e a0 f3 0b 3f 09 b0 d7 3e
       0.25988135 0.3855047 0.5466862 0.42126492
000050 0b 36 ec 3e ab 3c 03 3f e0 0b ce 3e 44 ed 14 3f
       0.46134982 0.51264447 0.40243435 0.5817454
000060 27 0e 0b 3f ac e7 40 bc 32 c5 af 3e fa 4c d8 3e
       0.5431847 -0.011773985 0.34330136 0.42246228
000070 cf f8 af 3e 4d a4 0e 3f 17 fc 16 3f 44 f6 8d 3f
       0.34369513 0.55719453 0.5897841 1.1090779
000080 c1 8a 6d 3e 85 74 c5 3e 79 53 1f 3f 0c bf ec 3e
       0.23197462 0.3856546 0.62236744 0.46239507
000090 88 fa e4 3e c7 3c 3b 3f 30 95 aa 3e f0 62 18 3f
       0.4472239 0.73139614 0.33316946 0.59525967
0000a0 f6 89 6d 3f 13 6a 34 3f 5e b0 ec 3e 6a 0d bf 3e
       0.92788637 0.70474356 0.46228307 0.37314922
0000b0 70 37 e5 3e da be c7 3e b1 90 9e 3e 53 4e 26 3f
       0.44768858 0.39012796 0.30969766 0.64963263
0000c0 bf 34 0e 3f 7c b4 80 3e ab 8e ca 3e bd 4d 06 3f
       0.55549234 0.251377 0.39561972 0.5246237
0000d0 60 60 cd 3e 98 6e 52 3e 93 c8 c0 3e 02 44 c5 3e
       0.4011259 0.2055 0.37653026 0.38528448
0000e0 92 0d 7d 3e af 37 1d 3c c2 08 e2 3e 2b 2c e0 3e
       0.24712208 0.009595796 0.44147307 0.43783697
0000f0 09 7a a0 3e 8f 66 b5 3e 65 1f fb 3e b4 65 bf 3e
       0.31343105 0.35429808 0.4904739 0.3738228
000100 f8 ab be 3e 5c f1 56 3e 1d ae 05 3f 7b 94 96 3f
       0.37240577 0.20990509 0.522188 1.1764063
000110 0f 91 d1 3e 13 49 cc 3e 90 d9 1e 3f 4f ce 9e 3e
       0.40930983 0.398995 0.62050724 0.31016776
000120 e9 91 aa 3b 80 e8 cf 3e 85 ef 97 3e 3f f8 58 3f
       0.005205382 0.4060707 0.29674926 0.84753793
000130 8d ee ca 3e 81 62 ec 3e 26 40 78 3f 97 da 83 3f
       0.39635125 0.46168903 0.9697288 1.0301083
000140 81 77 59 3f 69 f8 24 3f 44 b5 07 3f aa b6 3f 3f
       0.84947973 0.64441544 0.53010964 0.748881
000150 f0 6e f9 3e b0 60 7f 3f 60 df d6 3e 7f 0c 31 3f
       0.4871745 0.9975691 0.41967297 0.6915969
000160 24 52 bb 3e eb 74 02 3f 7f 7a d8 3e be 57 99 3e
       0.36586106 0.5095965 0.42280957 0.29949754
000170 09 12 9b 3f f8 0a fb 3e c7 cc 11 3f b2 c5 a1 3e
       1.2114879 0.49031806 0.5695309 0.31596142
000180 eb ef cc 3e 4e 7e 06 bc e0 7f 11 3f e0 91 07 3f
       0.40026793 -0.008208824 0.56835747 0.5295696
000190 86 f3 d3 3e d3 6c 2b 3f ad c2 d0 3e db 6e 4d bc
       0.4139673 0.6696293 0.40773526 -0.012538637
0001a0 16 21 26 3f 3c 87 ec 3e 9e 87 22 3f 8f d2 21 3f
       0.64894235 0.46196926 0.63488185 0.6321191
0001b0 3c ed b0 3e 9f 0d 53 3f 85 ac f0 3e 4e 89 05 3f
       0.34555995 0.8244266 0.47006622 0.52162635
0001c0 f7 a9 fa 3e c6 f0 24 3f b2 6d cf 3a 3c 39 d1 3e
       0.48957798 0.6442989 0.0015825538 0.4086398
0001d0 f8 7d f0 3e 5d d4 b6 3e 90 d4 8d 3f 8d ee 8a 3e
       0.46971107 0.35708895 1.1080494 0.27135125
0001e0 2b 2e 8e 3e 28 a5 01 3f e9 fb 09 3f f5 6a 0c 3f
       0.27769598 0.50642633 0.5390001 0.54850703
0001f0 24 41 36 3e 7e 71 23 3f 10 fb 02 3f 4b e3 b2 3e
       0.17798287 0.6384505 0.5116434 0.34939036
000200 2a c6 17 3f 42 2d 53 3c 56 95 84 3e 78 54 d3 3e
       0.5928675 0.012889208 0.25895184 0.41275382
000210 c9 72 f9 3e 4d 75 99 b9 d9 7a 93 3f d9 df f9 3e
       0.48720387 -0.0002926983 1.1521865 0.48803595
000220 42 95 ad 3e 76 8f 0c 3f 23 53 4b 3e e0 9e 29 3f
       0.33902937 0.54906404 0.19855933 0.6625805
000230 e5 0b f3 3e f4 34 3f 3f ba df 9e 3e 93 71 d9 3e
       0.47470012 0.74690175 0.31030065 0.42469463
000240 71 58 73 3f a2 7f b7 3e 3e 77 57 3e 3d ee de 3e
       0.95056826 0.35839564 0.21041581 0.43541136
000250 e8 97 80 3e a3 96 99 3e 67 bf 8b 3a 07 96 81 3e
       0.25115895 0.2999774 0.0010661901 0.25309774
000260 f9 2f ac 3e ea c7 b9 3e c0 26 08 3f e6 17 87 3e
       0.3363035 0.36285335 0.5318413 0.2638542
000270 5d 97 4b 3f 13 63 34 3f e9 1d a0 3f 4f 76 ec 3e
       0.7952784 0.70463675 1.2509128 0.46184012
000280 a0 2a ed 3e 05 a7 db 3e e3 b6 ca 3e 95 28 01 3f
       0.46321583 0.42900863 0.39592656 0.5045255
000290 77 12 d4 3e da b7 aa 3e d3 0e 9d 3e 10 e1 e9 3e
       0.41420338 0.33343393 0.30675372 0.45679522
0002a0 0a 89 d1 3e 9a 92 e2 3e 62 68 a8 3e 68 ee c5 3e
       0.40924865 0.44252473 0.32892138 0.38658452
0002b0 61 35 ea 3e b3 0f 8b 3e db 14 84 3e d3 33 9b 3e
       0.4574385 0.27160415 0.2579716 0.30312976
0002c0 a5 b5 fc 3e 46 ff ad 3e 9b 6c df 3e 61 c7 ad 3e
       0.49357334 0.3398382 0.43637547 0.33941177
0002d0 46 c8 0e 3f 69 11 e1 3e 31 0b ac 3e fe 8a 10 3f
       0.55774343 0.43958595 0.33602288 0.56462085
0002e0 cb d4 86 3e f5 80 a0 3e f0 f0 5c 3f f6 b1 c1 3e
       0.26334223 0.31348386 0.8630514 0.37831086
0002f0 03 6f 3d 3f bd 17 20 3f 40 cd 77 3e 8a 97 c8 3e
       0.73997515 0.6253622 0.2419939 0.39178115
000300 76 c7 df 3e c6 8a a8 3e 01 5f 9e 3e 1b 09 23 3f
       0.43706864 0.32918376 0.30931857 0.6368577
000310 f2 db e5 3e fe 0a 86 3e be fb b9 3e fd 87 e3 3e
       0.44894367 0.2618026 0.36324877 0.44439688
000320 88 4d b2 3e ec 37 02 3f cb 5b 94 3e fc 28 e2 3e
       0.34824777 0.5086658 0.28976282 0.44171894
000330 67 6e de 3e d6 e6 de 3e 5a 33 36 3e 65 4e a8 3e
       0.43443605 0.4353549 0.17793027 0.3287231
000340 28 18 65 3f 19 57 d9 3e bf 08 23 3f b3 bf d5 3e
       0.89489985 0.42449263 0.6368522 0.41747817
000350 23 d2 9e 3f 23 0a ca 3e 92 e6 ca 3e 6f ed ea 3e
       1.2407879 0.3946086 0.39629036 0.45884272
000360 f8 40 35 3f f8 dd df 3e ab 32 ae 3e ef 34 06 3f
       0.7080226 0.43724036 0.34023032 0.5242452
000370 5c 0d cf 3e 4a 8c a4 3e 5e 2a dd 3e d4 f1 e9 3e
       0.4043988 0.32138282 0.43196386 0.45692313
000380 99 92 d0 3e af fe 06 3f 19 74 9a 3e 80 4d 1d 3f
       0.40736845 0.52732366 0.301667 0.6144638
000390 31 25 b5 3e 84 00 5c 3e af 86 10 3f 3f 6d 22 3f
       0.35379937 0.21484572 0.5645551 0.63447946
0003a0 11 9a 08 3f ca fd 08 3f 6e 0f 20 3f b4 ca f6 3e
       0.53360087 0.5351225 0.62523544 0.48201525
0003b0 90 49 af 3e 57 f7 0b 3f 0e 0a fe 3e de 37 b7 3e
       0.3423581 0.54674286 0.49617046 0.3578481
0003c0 6b f8 7b 3e 9f de 23 3f 99 b1 ea 3e 17 06 ae 3e
       0.24606483 0.6401157 0.4583862 0.3398902
0003d0 6e db b8 bb 95 5f ce 3e b7 1b bd 3e 84 e2 56 3f
       -0.0056413924 0.40307298 0.36935207 0.83939385
0003e0 44 4f ab 3e f2 de f5 3e ee 0e f5 3e ac 28 cc 3e
       0.33458912 0.48021656 0.47862953 0.3987478
0003f0 dd 5d 8d 3e 42 a9 57 3f 9b 53 a7 3e 6c 0c 39 3e
       0.27610675 0.8424264 0.32680973 0.18071145
