critic_agent1.pth (torch_old, 235752 bytes, 19 tensors)

fc1.weight f4 [256, 24]
0	0xbde2664c	-0.11054668
1	0x3e339952	0.17538956
2	0x3c736d70	0.014857635
3	0x3ecdea78	0.40217948
4	0x3f07171a	0.52769625
5	0xbd33f369	-0.043933306
6	0xbdad5bd5	-0.08464781
7	0x3ece41cb	0.4028457
8	0xbe8bedc0	-0.27329826
9	0x3de80dc9	0.11330754
10	0xbe3a12a3	-0.18171172
11	0x3f61fdc6	0.8827785
12	0x3eedc8cb	0.46442255
13	0xbea984e4	-0.331092
14	0xbe36a709	-0.17837156
15	0x3f51a704	0.8189547
16	0xbf168101	-0.58790594
17	0xbdab3425	-0.08359555
18	0xbd49fe35	-0.049314696
19	0x3e9d60bf	0.30737874
20	0x3c45fd48	0.012084313
21	0xbc6660c4	-0.014061157
22	0xbdd46fe0	-0.10372901
23	0x3e9f645b	0.31131253
24	0x3d39dfcb	0.04537944
25	0x3f3ee45f	0.74567217
26	0xbd1431a6	-0.03618016
27	0xbe02c3e9	-0.12770046
28	0xbe762b86	-0.2404004
29	0xbee82fdc	-0.45349014
30	0xbca1b3c4	-0.01973904
31	0xbe00d574	-0.12581426
32	0x3ecb8538	0.39750075
33	0x3f15b412	0.5847789
34	0xbd8277bb	-0.06370493
35	0xbe05782b	-0.13034122
36	0x3d2f8573	0.042851876
37	0xbf65dce2	-0.89790165
38	0xbcd39e67	-0.025832368
39	0xbe818426	-0.25296134
40	0x3f75e657	0.96054596
41	0x3f136ff2	0.5759269
42	0x3ecfafb8	0.4056375
43	0x3e78265e	0.24233386
44	0xbe0c3143	-0.13690667
45	0xbf8c98e1	-1.0984155
46	0x3e95807d	0.2919959
47	0x3e8f2e9a	0.27965242
48	0x3c8e17ea	0.017345387
49	0x3f2cf9d3	0.675687
50	0xbbe1d222	-0.006891505
51	0x3e07a156	0.13245139
52	0xbfaf0b2a	-1.3675282
53	0xbf0221c0	-0.5083275
54	0xbd2c7f87	-0.042113807
55	0x3d57ea60	0.05271375
56	0x3e6d2310	0.23157907
57	0x3f346004	0.7045901
58	0xbc4996d5	-0.012304028
59	0xbc3a6a26	-0.011377847
60	0xbf43fdff	-0.7655944
61	0x3e85a11a	0.26099473
62	0x3ca772d2	0.020440493
63	0x3d1649bc	0.036691412
64	0x3ea153d7	0.31509277
65	0x3f5c2f41	0.86009604
66	0x3d8db010	0.06918347
67	0x3e0e1804	0.13876349
68	0xbf5fcc60	-0.87421227
69	0x3f76e478	0.96442366
70	0xbd074242	-0.033022173
71	0x3d892e67	0.06698304
72	0x3ec8aa28	0.3919232
73	0xbf4d87b5	-0.802852
74	0xbd1c655b	-0.038182598
75	0x3e9e96f0	0.3097453
76	0xbda2870c	-0.079359144
77	0x3ea9d725	0.33171955
78	0xbdd64808	-0.104629576
79	0x3e9bb239	0.3040941
80	0xbd84099c	-0.06447145
81	0xbf64263e	-0.8912085
82	0xbe82d8e9	-0.25556114
83	0x3ded2019	0.11578388
84	0xbd409fd4	-0.047027424
85	0x3e2abfee	0.16674778
86	0xbe87c639	-0.2651842
87	0x3e2ba5e3	0.167625
88	0xbe9d3787	-0.30706427
89	0xbfb111ec	-1.3833594
90	0xbe343d78	-0.17601573
91	0xbf43fc9d	-0.7655733
92	0xbe68be36	-0.2272881
93	0xbe5fdf47	-0.21862517
94	0xbe82e0ab	-0.25562033
95	0xbf3c594e	-0.7357377
96	0x3f8459b3	1.0339874
97	0x3bb19439	0.005419281
98	0x3d278294	0.040896013
99	0x3e96b73c	0.29436672
100	0xbee82074	-0.4533726
101	0xbfa54d02	-1.2914126
102	0xbc8eb6b3	-0.017421102
103	0x3e9156b4	0.28386462
104	0x3f4d4923	0.8018972
105	0x3d4d0bba	0.05006001
106	0x3d9ad07f	0.07559299
107	0xbe9a247f	-0.3010597
108	0xbe9a5833	-0.30145416
109	0xbf0186e1	-0.50596434
110	0x3dbaf72f	0.09129178
111	0xbe483eb0	-0.19555163
112	0x3f1c513b	0.6106145
113	0x3ec373d7	0.38174316
114	0x3d9064e5	0.07050494
115	0xbe027c3b	-0.12742703
116	0xbe62099c	-0.22073978
117	0xbdf1fdd0	-0.11815989
118	0x3d76c3a6	0.06024518
119	0xbe44471a	-0.19167748
120	0x3cad54d3	0.021158611
121	0x3fee44b9	1.8614722
122	0xbb82d055	-0.0039921203
123	0xbf1a4590	-0.60262394
124	0x3ddf6b4d	0.10909138
125	0xbdb48402	-0.08814241
126	0x3d832a96	0.06404607
127	0xbf1329c3	-0.574856
128	0xbcce9147	-0.025215758
129	0x3fe8b6ea	1.8180821
130	0xbd7febe5	-0.062480826
131	0x3df05e9d	0.11736796
132	0xbdbdef6e	-0.09274183
133	0xbe21d194	-0.15802604
134	0xbd836830	-0.064163566
135	0x3de6ce96	0.11269872
136	0x3ebdbed3	0.3705965
137	0x3fde8b02	1.7386172
138	0xbc5d2628	-0.013497867
139	0x3e18fdbc	0.14940542
140	0xbeb576b3	-0.35442123
141	0xbdf41fca	-0.11920126
142	0x3da7585b	0.08171149
143	0x3e33e665	0.17568357
144	0xbd13ed66	-0.036115073
145	0x3f369200	0.7131653
146	0x3daad604	0.083416015
147	0xbe78311b	-0.24237482
148	0x3e6b5634	0.22982103
149	0xbf0d3c03	-0.55169696
150	0x3c06a55d	0.008218137
151	0xbe7bb08f	-0.2457907
152	0x3d17527f	0.03694391
153	0x3f97d4e6	1.1861846
154	0x3dd0fb37	0.102041654
155	0x3f291cb6	0.66059434
156	0x3e44218a	0.19153419
157	0xbfa92679	-1.3214866
158	0x3d0ed9a5	0.03487553
159	0x3f2564c3	0.64606875
160	0xbdec2d80	-0.11532116
161	0x3fadc7f8	1.3576651
162	0xbdd26fc3	-0.10275223
163	0xbef7d041	-0.48401073
164	0x3e7c10c2	0.24615768
165	0xbf1fec73	-0.6247017
166	0xbcaa62c0	-0.02079904
167	0xbf11ee4d	-0.57004243
168	0xbd9bada4	-0.07601479
169	0x3faede13	1.3661522
170	0x3d45be12	0.04827697
171	0xbdd1a945	-0.10237364
172	0x3eda4d27	0.42636988
173	0xbf9a35eb	-1.2047704
174	0xbc3ef2a6	-0.011654532
175	0xbda6cd31	-0.08144606
176	0x3d53efdb	0.051742416
177	0x3f9350de	1.1509054
178	0x3d8643ed	0.065559246
179	0xbe27a9e5	-0.16373403
180	0x3d3bef2f	0.0458824
181	0xbfa80573	-1.3126663
182	0x3d33b42d	0.043873
183	0xbdbfee09	-0.093715735
184	0xbc692198	-0.014229201
185	0x3f76bfd9	0.96386486
186	0x3d849cbd	0.06475208
187	0x3e330453	0.17482118
188	0xbed93d43	-0.4242955
189	0xbfc77ff4	-1.5585923
190	0x3c5e6a22	0.013575109
191	0x3e28abd9	0.16471805
192	0xbf39b499	-0.72541195
193	0x3f882711	1.0636922
194	0x3d26684a	0.0406268
195	0xbe950f3d	-0.29113188
196	0x3f0d37ba	0.55163157
197	0x3f4d1966	0.8011688
198	0x3da1464b	0.078747354
199	0xbe9fb91e	-0.3119592
200	0xbc1142b9	-0.008866006
201	0x3f78c6f0	0.97178555
202	0x3dd36b2c	0.10323176
203	0xbe8e203a	-0.27758962
204	0x3e9308af	0.28717563
205	0x3f721173	0.94557875
206	0x3dd2d1e2	0.10293938
207	0xbe59e663	-0.21279292
208	0x3f0562ca	0.52103865
209	0x3f4277d0	0.7596407
210	0xbc8655b4	-0.016398288
211	0xbeba87ec	-0.36431825
212	0x3e75db04	0.24009329
213	0xbeb59077	-0.3546178
214	0xbca7e396	-0.020494264
215	0xbeb1c694	-0.34721816
216	0xbe43165f	-0.19051503
217	0xbf1f0a2b	-0.6212489
218	0xbbf31451	-0.0074181934
219	0x3e40f915	0.18845017
220	0x3ec5358a	0.3851741
221	0xbdeaa3ce	-0.114570245
222	0xbcaf9d10	-0.021437198
223	0x3e7b4d1f	0.24541138
224	0x3d8f867e	0.07008074
225	0x3e1028cf	0.14078067
226	0xbcbf9959	-0.023388552
227	0x3df5f098	0.1200878
228	0xbe3d4638	-0.18483818
229	0x3ef53800	0.47894287
230	0xbc570e42	-0.013125958
231	0x3e447e07	0.191887
232	0x3e83644f	0.25662467
233	0x3e8af67d	0.2714118
234	0xbcf3b15b	-0.029747656
235	0xbebeba1b	-0.37251362
236	0xbf7bf1c8	-0.98415804
237	0x3fbb4588	1.4630594
238	0x3d5d3644	0.05400683
239	0xbeaeeace	-0.34163517
240	0xbc4c6f32	-0.012477683
241	0x3d0674f6	0.032826386
242	0x3d0bef20	0.034163594
243	0x3b216b9f	0.0024630798
244	0x3c203bd5	0.00977989
245	0xbcece516	-0.02891783
246	0x3d507d96	0.050901018
247	0x3cd71bd3	0.026258385
248	0xbca315cd	-0.019907856
249	0x3c865daa	0.016402084
250	0x3d822dd3	0.063563965
251	0x3d6e9dba	0.05825589
252	0x3c973dfe	0.018462177
253	0xbd6abb50	-0.05730754
254	0x3d6c5e6a	0.057707228
255	0x3d8d933b	0.069128476

fc1.bias f4 [256]
0	0xbe435098	-0.19073713
1	0xbdee2118	-0.11627406
2	0x3e0c7f19	0.13720359
3	0xbd1a0d68	-0.03761044
4	0x3daaecc3	0.0834594
5	0xbe2cc214	-0.1687091
6	0xbe226df4	-0.15862256
7	0xbd9c5968	-0.076342404
8	0x3b9709c6	0.0046093194
9	0xbd3fe0cd	-0.046845246
10	0xbdf2a3f6	-0.11847679
11	0xbcf40cbe	-0.029791232
12	0xbd82e9ed	-0.06392274
13	0xbe3e5698	-0.1858772
14	0x3d7cde5a	0.06173549
15	0xbdd659c7	-0.104663424
16	0xbdeb0021	-0.11474634
17	0x3db9a899	0.090653606
18	0xbe23af0a	-0.15984741
19	0xbddb946f	-0.10721671
20	0x3d8d0063	0.068848394
21	0xbe1430d8	-0.14471757
22	0x3df78b8b	0.120871626
23	0x3e2a18d5	0.16611035
24	0xbe02dc92	-0.12779453
25	0x3cd0df18	0.025497004
26	0x3dd29a9f	0.10283398
27	0xbdd48358	-0.10376614
28	0xbdeab484	-0.11460212
29	0x3d8c6404	0.06855014
30	0x3c731807	0.0148372715
31	0x3e2714a2	0.16316465
32	0x3e4dbb34	0.20090944
33	0x3d9d74a6	0.076882645
34	0x3ddf5201	0.10904313
35	0xbe253223	-0.16132407
36	0xbcbc2b58	-0.022969887
37	0xbd630ac2	-0.05543018
38	0x3dcdb3a6	0.10044031
39	0xbe19cef7	-0.15020357
40	0x3d9be025	0.076111116
41	0xbdc696cc	-0.09696731
42	0x3e4eb093	0.20184545
43	0x3d39b40a	0.045337714
44	0xbd0d4a33	-0.03449459
45	0xbde56763	-0.1120136
46	0xbde73c42	-0.1129079
47	0xbda0e1d9	-0.07855577
48	0xbd538f2f	-0.051650222
49	0xbd053622	-0.03252233
50	0x3dec708d	0.11544905
51	0xbe28ec5d	-0.16496415
52	0xbdcf2df5	-0.101161875
53	0x3e2174eb	0.15767257
54	0xbc43f94e	-0.011961294
55	0xbe1298dd	-0.14316125
56	0xbd9dc7cd	-0.077041246
57	0xbdbcdd93	-0.092219494
58	0xbd2ad4da	-0.041706897
59	0x3e3b9de4	0.18321949
60	0xbd7723f9	-0.06033704
61	0x3da128db	0.07869121
62	0x3dcfcccb	0.10146483
63	0xbd61613c	-0.05502437
64	0x3e48e3dd	0.19618173
65	0x3df681c1	0.12036467
66	0x3d7a35de	0.061086528
67	0xbd28b880	-0.041191578
68	0x3c389aa1	0.011267335
69	0x3e1bb73d	0.15206619
70	0xbe292741	-0.1651888
71	0x3dd201f2	0.10254277
72	0x3c18670c	0.009301912
73	0x3e100326	0.14063701
74	0xbd153e96	-0.03643664
75	0x3e248b72	0.16068819
76	0xbe3340cc	-0.17505187
77	0xbdad625c	-0.08466026
78	0xbe203ce5	-0.1564823
79	0x3e298eec	0.16558427
80	0x3ccaf37e	0.02477431
81	0xbe459494	-0.1929496
82	0xbe1b0d80	-0.15141869
83	0xbe3d793d	-0.1850328
84	0x3d96d100	0.07364082
85	0x3e1e1d59	0.15440883
86	0xbd98447b	-0.074349366
87	0xbd89b439	-0.06723828
88	0xbc986720	-0.018603861
89	0x3d536f50	0.051619828
90	0xbd844a18	-0.06459445
91	0xbe3a33d6	-0.18183836
92	0x3d9f381b	0.07774373
93	0x3d7d55c7	0.06184938
94	0xbd3987b0	-0.045295417
95	0x3e433255	0.19062169
96	0x3bfea6ad	0.007771334
97	0xbe4cf8e0	-0.20016813
98	0xbe284d19	-0.1643566
99	0xbdac027a	-0.0839891
100	0xbb23af6e	-0.002497639
101	0x3e2011d7	0.15631805
102	0xbd7ddbd9	-0.06197724
103	0x3d9742b4	0.073857695
104	0xbdcf239c	-0.10114214
105	0xbc3f16b3	-0.011663127
106	0x3df0550b	0.11734971
107	0x3ce484a9	0.027895289
108	0xbd7226ba	-0.059118964
109	0xbe076a34	-0.13224107
110	0xbe25d746	-0.16195402
111	0xbe1bbb64	-0.15208203
112	0xbe4b20a3	-0.19836669
113	0xbdec4fd5	-0.11538664
114	0xbe4231bc	-0.18964285
115	0x3e3c360d	0.18379994
116	0xbe481099	-0.19537582
117	0x3e4698dd	0.1939425
118	0xbe05001d	-0.12988324
119	0x3c46d14f	0.012134864
120	0xbcb5dbd5	-0.02219955
121	0x3d1da8fe	0.03849124
122	0x3d7d3e9b	0.061827283
123	0x3d9301ff	0.07178115
124	0xbcbe0ff5	-0.023200968
125	0x3d6126cb	0.054968636
126	0xbcfb1868	-0.030651286
127	0x3e45143c	0.19246
128	0x3e461cd8	0.1934694
129	0x3e426e0a	0.18987289
130	0x3e3a1d68	0.1817528
131	0x3db0f4e3	0.086404584
132	0xbe1bb37b	-0.15205185
133	0xbc90ec2c	-0.01769074
134	0xbdd8655a	-0.10566206
135	0xbdda0eab	-0.10647329
136	0x3e462c0c	0.1935274
137	0xbbba4538	-0.005684521
138	0xbe2310f8	-0.15924442
139	0x3d99152e	0.07474743
140	0x3d749664	0.059713736
141	0x3d3c8a82	0.04603053
142	0x3d5acf03	0.053420078
143	0x3e04bd63	0.1296287
144	0x3d16f7f0	0.036857545
145	0x3e3ebf19	0.18627585
146	0x3e0ecbc4	0.13944918
147	0x3deb0d33	0.11477127
148	0xbda1a440	-0.07892656
149	0x3e4f8fd7	0.20269714
150	0x3e4d54f6	0.20051941
151	0xbd9978b8	-0.074937284
152	0x3caa14eb	0.020761928
153	0xbe271068	-0.16314852
154	0x3db4536f	0.08804976
155	0xbc86e00f	-0.016464261
156	0xbe322cb7	-0.1739987
157	0x3a9efdb1	0.0012130049
158	0xbe044bec	-0.12919587
159	0xbde1ee98	-0.11031836
160	0xbe3fccb2	-0.18730429
161	0xbe19d08c	-0.1502096
162	0x3de12fb3	0.10995426
163	0x3c8f2ef2	0.01747844
164	0x3e2da4a0	0.1695733
165	0x3dcd1c09	0.10015113
166	0xbd919c1d	-0.07109854
167	0x3e3f8d3c	0.1870622
168	0xbdfef6a6	-0.12449388
169	0x3e22775a	0.15865842
170	0xbd92f353	-0.07175317
171	0xbd8d5f31	-0.06902922
172	0xbdcdb66f	-0.10044562
173	0xbc6785ac	-0.014130991
174	0x3de1fc0f	0.110344045
175	0xbd924a74	-0.07143107
176	0x3e0f0307	0.13965999
177	0xbdcb8212	-0.09936918
178	0x3e1f8a7b	0.1558017
179	0x3e3ae34d	0.18250771
180	0xbdfc792e	-0.12327801
181	0x3caee487	0.021349205
182	0x3e2328ea	0.15933576
183	0xbcb1e2e6	-0.021714639
184	0xbe2219da	-0.15830174
185	0xbabfb498	-0.0014625965
186	0xbe0ede1e	-0.13951918
187	0xbd18d842	-0.037315615
188	0x3e2b1250	0.16706204
189	0x3e13958d	0.14412518
190	0x3e0aa832	0.13540724
191	0xbdf8f275	-0.1215562
192	0xbde40199	-0.11133117
193	0x3bb578f7	0.005538102
194	0x3e055780	0.1302166
195	0xbe178eee	-0.14800617
196	0xbddc56c2	-0.10758735
197	0xbe4c352c	-0.19942158
198	0x3dc61e2a	0.09673722
199	0xbe0834c2	-0.13301376
200	0x3d80506f	0.062653415
201	0xbe0d93a5	-0.13825853
202	0xbd65aaa0	-0.056070924
203	0xbe4a6e40	-0.1976862
204	0xbe0ed77f	-0.13949393
205	0xbcf77f1a	-0.030211974
206	0xbdb09372	-0.08621873
207	0x3d67eb8a	0.056621112
208	0xbdf38802	-0.11891176
209	0x3cd4e53b	0.025988212
210	0xbca46c41	-0.02007115
211	0x3a926894	0.0011170083
212	0x3dc86ddc	0.09786579
213	0xbe09daa4	-0.13462311
214	0xbd833a50	-0.064076066
215	0xbddb396e	-0.10704313
216	0x3d19c27c	0.03753899
217	0x3ddad522	0.10685183
218	0xbdf4e656	-0.119579956
219	0x3df1df9e	0.1181023
220	0x3d8811e5	0.06644038
221	0x3daa2eee	0.083097324
222	0xbe3d617c	-0.18494219
223	0xbe26f1c8	-0.1630317
224	0xbc958418	-0.018251464
225	0xbe367c01	-0.17820741
226	0xbe3af527	-0.1825758
227	0xbddd4436	-0.10804026
228	0xbca1ed37	-0.019766433
229	0x3ce64a3d	0.028111571
230	0x3e19c581	0.15016748
231	0xbe275cbc	-0.16343969
232	0xbd8ea0cc	-0.06964263
233	0x3e384e72	0.17998675
234	0xbe424c71	-0.18974473
235	0xbe3d7966	-0.18503341
236	0x3d8dba01	0.06920243
237	0xbdb8ff79	-0.090331025
238	0x3dda6c65	0.10665206
239	0x3e2d6152	0.16931656
240	0xbd15da8a	-0.03658537
241	0xbe24c68a	-0.16091362
242	0xbb352b9f	-0.0027644408
243	0xbd140ef1	-0.03614706
244	0xbc60dde0	-0.013724774
245	0xbd201e40	-0.03909135
246	0x3e113a8a	0.14182487
247	0x3e40fbee	0.18846104
248	0x3e11647e	0.14198491
249	0x3db37989	0.08763415
250	0x3e0b2d12	0.13591412
251	0xbe0f2190	-0.13977647
252	0xbd756ce0	-0.059918284
253	0x3daa95e8	0.083293736
254	0x3d6ee1e6	0.058320902
255	0x3e366d3a	0.17815104

fc2.weight f4 [128, 258]
0	0x3cf0c5ba	0.029391158
1	0xbe8cceb1	-0.27501443
2	0xbebe46b1	-0.37163308
3	0xbef12095	-0.4709517
4	0xbe275400	-0.16340637
5	0xbe805a40	-0.25068855
6	0xbe93cd4b	-0.28867564
7	0xbe99411d	-0.2993249
8	0x3e8cf7d6	0.27532834
9	0x3e2ef3cf	0.17085193
10	0x3d3a1cd0	0.045437634
11	0x3c6682cf	0.014069273
12	0x3e7e1bd0	0.24815297
13	0x3e820552	0.25394684
14	0x3ecc9531	0.39957574
15	0xbecdd6d9	-0.40202978
16	0xbe6906ae	-0.22756454
17	0x3e53160c	0.20613879
18	0xbe43bd49	-0.19115175
19	0xbe1c29e3	-0.15250354
20	0x3e6bb425	0.23017938
21	0xbe8662cc	-0.2624725
22	0xbe8b6d82	-0.27231985
23	0x3d84ea3b	0.064899884
24	0x3e96db36	0.2946412
25	0xbc7fb345	-0.015606706
26	0x3ede678d	0.43438378
27	0xbe5ddccd	-0.2166626
28	0x3e08b70b	0.13351075
29	0x3e33eaca	0.17570034
30	0x3dabc892	0.08387865
31	0xbcd92937	-0.02650891
32	0xbeb94671	-0.36186555
33	0xbcbee629	-0.023303108
34	0xbe0aa126	-0.13538036
35	0x3e0382a8	0.1284281
36	0x3e4ecba4	0.2019487
37	0x3bc4d577	0.0060068923
38	0x3e741421	0.23835804
39	0xbe81b2eb	-0.25331816
40	0xbec5f853	-0.3866602
41	0xbf063d02	-0.5243684
42	0xbe2332ea	-0.15937391
43	0xbe99b122	-0.30017954
44	0x3dc0111d	0.09378264
45	0x3ed0168f	0.4064221
46	0xbeaa592e	-0.33271164
47	0x3f05a398	0.5220275
48	0xbeab944a	-0.33511573
49	0x3d3814d2	0.04494173
50	0xbef81800	-0.4845581
51	0xbe5e2284	-0.21692854
52	0x3e4e997b	0.20175736
53	0x3c62e665	0.013848876
54	0xbf0475a8	-0.5174203
55	0x3e85c378	0.26125693
56	0xbe7aadf8	-0.24480426
57	0x3d2a0b03	0.041514408
58	0xbdae1201	-0.08499528
59	0x3f2712f7	0.65263313
60	0xbe9e05c9	-0.3086379
61	0x3ea66047	0.3249533
62	0x3cbcc264	0.023041911
63	0x3e8f78b6	0.28021783
64	0xbe399a10	-0.18125176
65	0x3df86ae4	0.12129763
66	0xbd8c15a7	-0.06840067
67	0xbe5898cf	-0.21152042
68	0xbed48fa8	-0.4151585
69	0xbdca3082	-0.098725334
70	0xbe0245b8	-0.12721908
71	0xbdf14408	-0.11780554
72	0x3d563b4a	0.052302636
73	0xbe688d9f	-0.22710274
74	0x3d9625ae	0.073314056
75	0xbd2c626c	-0.04208605
76	0xbe3bfa7c	-0.18357271
77	0x3c4d8346	0.012543505
78	0xbf800637	-1.0001897
79	0xbe05a770	-0.13052154
80	0x3f178086	0.59180486
81	0xbdcc01c5	-0.09961275
82	0x3dcffcf7	0.10155671
83	0xbd297b04	-0.041377082
84	0xbf104fc4	-0.5637171
85	0x3ecc7f80	0.39941025
86	0xbe52c14f	-0.20581554
87	0x3eade202	0.33961493
88	0xbe695e1e	-0.22789809
89	0xbefd2116	-0.49439305
90	0xbe38afe7	-0.18035851
91	0xbd8da2a8	-0.0691579
92	0xbd432e46	-0.04765155
93	0x3e5aece0	0.21379423
94	0x3e3bf6cd	0.18355866
95	0x3e6630e6	0.22479591
96	0xbc92229a	-0.017838765
97	0xbd8e9e1a	-0.06963749
98	0xbe037986	-0.12839326
99	0xbbdffe23	-0.0068357154
100	0x3d97d3c7	0.0741344
101	0xbf2f54e6	-0.6848892
102	0xbcc26769	-0.02373095
103	0xbbba5eae	-0.005687556
104	0xbe5fe87a	-0.21866027
105	0xbd420681	-0.047369484
106	0xbe96b51b	-0.29435048
107	0x3e8caf47	0.27477476
108	0x3da9f419	0.08298511
109	0xbd5f0f23	-0.054457795
110	0xbe066266	-0.13123474
111	0x3ebafb65	0.36519924
112	0x3e356b7d	0.17716785
113	0x3dcd83f5	0.100349344
114	0xbdba504d	-0.090973474
115	0x3dd16202	0.10223772
116	0xbf072319	-0.5278793
117	0x3c8bfd50	0.017088562
118	0xbd03c0bf	-0.03216624
119	0xbdaa614f	-0.083193414
120	0xbf04bb0b	-0.51847905
121	0x3ed76d7c	0.42075717
122	0xbe121e45	-0.1426936
123	0x3e815bd4	0.25265372
124	0xbeb674f4	-0.35636103
125	0x3e256af6	0.16154084
126	0xbd338887	-0.043831374
127	0x3e83e28c	0.2575878
128	0xbec0903a	-0.37610036
129	0x3d8fc740	0.07020426
130	0x3d142d26	0.03617587
131	0xbd605ac5	-0.054774065
132	0xbe755094	-0.2395652
133	0x3dcef6f9	0.101057
134	0x3ce0361b	0.02736955
135	0xbe985a03	-0.29756173
136	0xbe23383c	-0.1593942
137	0xbf015df8	-0.5053401
138	0x3e84cec8	0.25939012
139	0xbe8fb12b	-0.28064856
140	0x3d07e142	0.033173807
141	0xbef77ab0	-0.4833579
142	0x3d36070f	0.044440325
143	0xbe58ad47	-0.2115985
144	0xbe0eb68b	-0.13936822
145	0xbeb77822	-0.35833842
146	0x3dd0b198	0.10190123
147	0xbe5f9f96	-0.21838221
148	0xbf86cabf	-1.0530623
149	0x3e309204	0.172432
150	0xbd033019	-0.03202829
151	0x3e606f74	0.21917516
152	0xbdad3d5e	-0.084589705
153	0xbd54d945	-0.051965017
154	0xbefed4f6	-0.4977185
155	0xbd91757d	-0.07102487
156	0x3c9a2e4f	0.01882091
157	0x3f1dfa8b	0.61710423
158	0xbe75e689	-0.24013723
159	0x3e20253f	0.15639208
160	0xbe0bb491	-0.136431
161	0xbdf4827f	-0.11938953
162	0xbee02959	-0.43781546
163	0x3f180d25	0.59395057
164	0x3ea198b8	0.31561828
165	0x3ed26349	0.41091374
166	0x3dd7bd93	0.10534205
167	0xbf1cb3f7	-0.61212105
168	0xbec614cf	-0.3868775
169	0x3ec24582	0.37943655
170	0x3e46185b	0.19345228
171	0xbea3cc1d	-0.31991664
172	0xbce1a12e	-0.027542677
173	0xbe895687	-0.26823828
174	0x3e081775	0.13290198
175	0x3cf8c01b	0.03036504
176	0xba55a699	-0.000815013
177	0x3ed2f456	0.4120204
178	0xbb67ec66	-0.0035388707
179	0x3eee8e56	0.4659297
180	0xbdc3779f	-0.095443
181	0x3cac5421	0.02103621
182	0xbf0b003a	-0.5429722
183	0x3e20f4d3	0.15718393
184	0x3d6a7c5a	0.057247497
185	0xbe527fa2	-0.205565
186	0x3d83b7ce	0.06431542
187	0xbe9debec	-0.30844057
188	0xbefa0428	-0.48831296
189	0xbee31644	-0.44352925
190	0xbe8d2bb9	-0.2757242
191	0xbf192c10	-0.5983286
192	0xbcc9cf84	-0.024635084
193	0x3e56bb05	0.2096978
194	0x3cf972a4	0.030450173
195	0xbca591ff	-0.020211218
196	0xbe6c631c	-0.23084682
197	0xbe8752dc	-0.26430404
198	0x3ed23c59	0.41061667
199	0xbe948285	-0.29005828
200	0xbdf32193	-0.11871638
201	0x3e4d2ee8	0.20037425
202	0xbe200bc2	-0.15629485
203	0xbd911728	-0.07084495
204	0xbe586a00	-0.21134186
205	0xbef2d5a2	-0.47428614
206	0x3ea665a9	0.32499436
207	0xbbbb330b	-0.005712872
208	0xbd4ed38e	-0.050494723
209	0x3d66603f	0.05624413
210	0xbeb6e2be	-0.35719866
211	0xbe678e2c	-0.22612828
212	0xbe9bc0c5	-0.3042051
213	0x3e57c827	0.21072446
214	0xbbb94a78	-0.0056546293
215	0xbf191baf	-0.59807867
216	0x3d85c7ee	0.06532274
217	0xbcf49c92	-0.029859815
218	0xbe6a2b9e	-0.22868201
219	0xbd328e56	-0.043592773
220	0xbe947417	-0.2899482
221	0xbeb4db6a	-0.3532365
222	0xbe40badc	-0.18821281
223	0xbe9b56bb	-0.30339608
224	0xbf6b3b3d	-0.91887265
225	0xbef3422e	-0.4751143
226	0x3f26bb24	0.65129304
227	0x3e12668c	0.14296931
228	0x3d6722ca	0.05642966
229	0x3e0c68b1	0.13711812
230	0xbcd5fe5b	-0.026122263
231	0x3e8a8482	0.2705422
232	0x3eb28382	0.34865957
233	0xbde0f7ce	-0.10984765
234	0x3eba11ca	0.36341697
235	0xbdd09c89	-0.10186107
236	0x3cfc5f2e	0.030807104
237	0xbe84fae9	-0.2597268
238	0xbde5a71d	-0.11213515
239	0xbf51c7da	-0.81945574
240	0xbebb6e7e	-0.36607736
241	0x3d847279	0.064671464
242	0xbd55e9fa	-0.05222509
243	0xbf262cf2	-0.6491233
244	0xbd86cc43	-0.065819286
245	0xbe8173ca	-0.25283653
246	0x3f5640cc	0.8369262
247	0x3ea81f80	0.32836533
248	0xbe4c03b2	-0.19923285
249	0xbda90621	-0.08253122
250	0xbea0d03b	-0.31408867
251	0xbcb8f189	-0.02257611
252	0xbd9777a9	-0.0739587
253	0xbe98e81f	-0.29864594
254	0xbd6f65d9	-0.05844674
255	0xbe7cb0f4	-0.24676877

fc2.bias f4 [128]
0	0xbd1d9813	-0.038475107
1	0xbd4747fb	-0.04865263
2	0xbd1b81bc	-0.03796552
3	0xbd0e41dd	-0.03473078
4	0xbd690e33	-0.056898307
5	0xbc60da3e	-0.013723908
6	0x3d2d69a4	0.042337075
7	0x3d850ffd	0.0649719
8	0x3d7a7620	0.06114781
9	0xbc54dbc1	-0.012991847
10	0xbcfb3f1d	-0.030669743
11	0x3d2d99d2	0.042383023
12	0x3ce4c704	0.02792693
13	0xbd59ff07	-0.05322173
14	0xba373c04	-0.0006989839
15	0xbcea42f7	-0.028596384
16	0x3d128d01	0.035779003
17	0x3c6a3a5e	0.014296142
18	0x3d69ac96	0.057049356
19	0x3d6d8ca8	0.05799547
20	0x3d652209	0.05594066
21	0xbd7b9ac8	-0.061426908
22	0x3d0e2dc4	0.034711614
23	0xbccb428b	-0.024812004
24	0xbd06a566	-0.03287258
25	0x3d638348	0.05554512
26	0x3c572000	0.013130188
27	0x3d685f23	0.056731354
28	0xbcbe3c5f	-0.023222147
29	0xbcb2955c	-0.021799736
30	0x3cf14227	0.02945049
31	0x3ca6a580	0.020342588
32	0x3c382347	0.0112388795
33	0x3cf62c4c	0.03005042
34	0xbb7fc80a	-0.0039029145
35	0xbd6a8049	-0.05725125
36	0xbd566497	-0.052342024
37	0xbd56be66	-0.05242767
38	0xbd1023d4	-0.03519042
39	0x3d3ab697	0.045584287
40	0x3cb7e942	0.022450093
41	0x3d25b138	0.040452212
42	0xbd458cf9	-0.048230145
43	0x3cab3101	0.02089739
44	0x3bf28988	0.007401649
45	0xbd694381	-0.056949142
46	0x3d6e297a	0.058145024
47	0x3d26ce83	0.04072429
48	0xbd240487	-0.04004338
49	0x3d600b28	0.05469814
50	0xbd5386df	-0.051642295
51	0x3c722083	0.014778259
52	0xbd7c43fe	-0.06158828
53	0x3d1187fc	0.035530075
54	0xbca733ec	-0.0204105
55	0xbd010d72	-0.031506963
56	0x3c83c780	0.01608634
57	0x3d18a903	0.037270557
58	0x3d75a2a1	0.059969548
59	0xbd474d6b	-0.048657816
60	0x3d2db193	0.042405676
61	0x3ce74587	0.028231395
62	0x3d24de99	0.04025135
63	0x3d6f24cc	0.0583847
64	0x3d46321e	0.04838764
65	0x3ba350d8	0.0049840026
66	0x3ccbb611	0.02486709
67	0xbce67bde	-0.028135236
68	0x3d333e83	0.043760788
69	0xbc102b89	-0.008799442
70	0xbc9596e8	-0.018260434
71	0xbbfb2ea8	-0.007665474
72	0xbd545675	-0.051840264
73	0x3c3ba278	0.01145231
74	0xbd327eda	-0.043578006
75	0x3d2d65d9	0.042333458
76	0x3d2e5f7e	0.042571537
77	0xbb9ee24e	-0.004848755
78	0x3cf1badc	0.029508047
79	0x3d564e52	0.052320786
80	0x3d0b03e3	0.033939254
81	0xbcbc62eb	-0.022996387
82	0x3c74f5fe	0.014951227
83	0x3ccece9b	0.025245002
84	0xbd728f7a	-0.05921886
85	0xbca262f9	-0.019822584
86	0xbcbc2d72	-0.022970889
87	0x3cde7730	0.027156442
88	0x3cbd285d	0.023090536
89	0x3c0df888	0.0086652115
90	0xbd454c39	-0.048168395
91	0x3ce37c9f	0.027769385
92	0x3d05bc84	0.032650486
93	0xbd4e952e	-0.050435238
94	0x3bed3a4b	0.007239615
95	0x3d42c7e1	0.0475539
96	0xbd05340b	-0.032520335
97	0x3d72da70	0.05929035
98	0xbb99825b	-0.004684729
99	0x3b50492e	0.00317819
100	0xbd4ec751	-0.05048305
101	0x3d7f890e	0.062386565
102	0x3d207d07	0.039181735
103	0x3bceef34	0.0063151363
104	0xbbe34e66	-0.006936836
105	0x3beeef8b	0.0072917393
106	0xbc9f11b1	-0.019417616
107	0xbcc54da8	-0.024084881
108	0x3d5eeef7	0.054427113
109	0xbc0e9680	-0.008702874
110	0x3d7e1f4a	0.06204156
111	0xbd2ce714	-0.04221256
112	0x3d68b5bc	0.05681394
113	0xbd505c94	-0.05086954
114	0xbc972398	-0.01844959
115	0x3bb1f85a	0.005431217
116	0xbbb151bd	-0.0054113553
117	0x3cfd7edf	0.030944286
118	0x3cb657b8	0.022258624
119	0xbc31e3ea	-0.010857562
120	0xbd5d0214	-0.05395706
121	0xbd2103a5	-0.039310116
122	0xbac32ba8	-0.001489033
123	0x3be1f0a1	0.0068951403
124	0xbccca00b	-0.024978658
125	0x3ba64b2b	0.0050748787
126	0x3d249f42	0.040190943
127	0x3d81e935	0.06343309

fc3.weight f4 [128, 128]
0	0x3d0c277c	0.034217343
1	0x3aa52800	0.0012600422
2	0x3c1949d0	0.009355977
3	0x3cb85b08	0.022504345
4	0xbc49fcf0	-0.012328371
5	0x3c17c738	0.009263806
6	0x3cd5a114	0.026077785
7	0xbd1906dd	-0.03736006
8	0x3d95a163	0.07306173
9	0xbd037ba4	-0.032100335
10	0x3d5f3272	0.054491468
11	0x3ccbd4a4	0.024881668
12	0x3cc13964	0.023586936
13	0xbd0d82df	-0.034548637
14	0xbd80a577	-0.0628156
15	0x3ba3f6d0	0.0050037876
16	0x3cfb2934	0.030659296
17	0x3d9cd4b7	0.0765776
18	0xbdae23f3	-0.085029505
19	0x3dace99b	0.08442994
20	0x3cabcb68	0.020971015
21	0xbd34675d	-0.044043887
22	0x3d040734	0.032233432
23	0xbd8bba25	-0.068226136
24	0x3d912a4b	0.07088145
25	0xbbaca4c0	-0.005268663
26	0xbc0c5fd8	-0.008567773
27	0xbc5d5208	-0.013508327
28	0xbc97e24c	-0.018540524
29	0x3d9a1d6d	0.07525144
30	0xbd884c04	-0.06655124
31	0x3d4c2122	0.049836285
32	0x3c37fe60	0.011230081
33	0xbd9433fc	-0.07236478
34	0x3beabd20	0.0071636587
35	0x3d0f90ca	0.03505019
36	0xbc043278	-0.008068673
37	0x3d7e9012	0.062149115
38	0x3cb57cec	0.022154294
39	0x3c84bb88	0.016202703
40	0xbdaf2c24	-0.08553341
41	0x3d2a850e	0.041630797
42	0xbd80214f	-0.06256353
43	0x3d79f2d6	0.061022602
44	0x3d64190e	0.055687957
45	0x3cd39f0c	0.025832675
46	0xbd6c64b4	-0.057713225
47	0xbc4fe438	-0.012688689
48	0x3d9e8237	0.0773968
49	0x3d83817b	0.06421181
50	0x3b400c60	0.002930425
51	0xbd0b675f	-0.03403413
52	0x3d7de1d2	0.061982937
53	0x3d601a16	0.054712377
54	0x3ca4de84	0.020125635
55	0xbd5c49cf	-0.053781327
56	0x3d9ef81d	0.077621676
57	0x3d72f41a	0.059314825
58	0xbd2f2e37	-0.042768683
59	0xbd3ad533	-0.04561348
60	0xbc725538	-0.014790826
61	0xbd88838b	-0.06665715
62	0xbd9e1944	-0.07719663
63	0xbd9f24a1	-0.07770658
64	0xbbb50de0	-0.0055253357
65	0x3db36951	0.08760322
66	0x3cae0fec	0.021247827
67	0x3d012a1e	0.031534307
68	0x3d179ad6	0.037012897
69	0x3d9612a7	0.073277764
70	0xbd53a746	-0.051673196
71	0x3cba1de0	0.022719324
72	0x3d879b69	0.06621439
73	0xbccd8354	-0.025087036
74	0xbcbc0a44	-0.022954114
75	0x3cc4ce54	0.024024166
76	0xbca607a8	-0.020267323
77	0xbca8817c	-0.020569555
78	0x3c34b650	0.011029795
79	0x3c809c88	0.01569964
80	0x3dace20b	0.08441552
81	0x3d0d4a28	0.03449455
82	0x3bb66610	0.005566366
83	0xbd6a0ddd	-0.057142127
84	0x3d6b9a76	0.057520352
85	0xbce7a7f6	-0.028278332
86	0x3dafea07	0.08589559
87	0x3d2161fe	0.039400093
88	0xbca836ac	-0.020533882
89	0x3da7e483	0.08197882
90	0xbd988e4f	-0.07449018
91	0xbd67e4ac	-0.056614563
92	0xbd0b1172	-0.033952184
93	0x3d92f5bb	0.071757756
94	0x3b854f40	0.004068285
95	0x3d8bebcd	0.06832085
96	0xbd9ff1e0	-0.07809806
97	0x3da615a7	0.081095986
98	0xbc935d94	-0.017988957
99	0x3dad29e7	0.08455258
100	0xbcc008e0	-0.023441732
101	0x3d374d22	0.044751294
102	0x3d6931b2	0.05693216
103	0x3af1ea80	0.0018456727
104	0xbbaa5050	-0.0051975623
105	0x3da64965	0.08119468
106	0x3b8baf20	0.00426282
107	0xbd4b31db	-0.049608093
108	0xbb59aec0	-0.0033215731
109	0x3d5893c2	0.052875288
110	0xbd2eda69	-0.04268876
111	0xbc68cbb8	-0.014208727
112	0x3c87b648	0.01656641
113	0x3c6112b8	0.013737373
114	0x3c0bb2f0	0.008526549
115	0x3d03632c	0.032077
116	0xbd320c2e	-0.043468647
117	0xbd3165ab	-0.04330985
118	0xbd3c5361	-0.045977954
119	0x3c0dcd50	0.008654907
120	0x3d912807	0.07087713
121	0xbd41b09a	-0.04728756
122	0xbd77b71a	-0.060477354
123	0x3d62ec52	0.055401154
124	0x3b2b41e0	0.0026131794
125	0x3d9cd2bb	0.07657381
126	0xbcd22664	-0.025653072
127	0xbd0778ce	-0.033074193
128	0xbd056fe3	-0.032577407
129	0x3d8f2479	0.069893785
130	0x3d163a02	0.036676414
131	0x3d588aca	0.052866735
132	0xbd241f31	-0.04006881
133	0xbd3b9e6a	-0.045805372
134	0x3d8e02d9	0.06934137
135	0xbda1636d	-0.07880292
136	0x3ca8cb74	0.020604827
137	0x3c990ac0	0.018681884
138	0x3c3e34b0	0.011609241
139	0x3d79be3e	0.060972445
140	0xbd876786	-0.066115424
141	0xbd847076	-0.06466763
142	0x3d8a7bdf	0.06761908
143	0x3d613fd6	0.05499252
144	0xbd77ec86	-0.0605283
145	0x3cf1c5f0	0.02951333
146	0xbceaf6ec	-0.028682195
147	0x3cced85c	0.025249653
148	0x3c423070	0.011852369
149	0x3d94c4e3	0.07264116
150	0xbc5cee48	-0.013484545
151	0x3d593bc2	0.053035505
152	0x3d8be19f	0.06830143
153	0x3c6efcb8	0.01458662
154	0x3cb181b0	0.021668285
155	0xbd8142b4	-0.06311551
156	0xbcc311bc	-0.023812167
157	0x3d91e22b	0.07123216
158	0xbcdbc180	-0.026825666
159	0xbd771fce	-0.060333066
160	0xbced2616	-0.028948825
161	0xbd780e02	-0.060560234
162	0xba4b5680	-0.0007756725
163	0x3d2ebd2e	0.042660885
164	0xbc429c00	-0.011878014
165	0xbd77ca5f	-0.06049573
166	0xbc8d2ba8	-0.017232731
167	0xbd5f01ef	-0.054445203
168	0xbce02d9a	-0.027365495
169	0x3d0b9cd0	0.034085095
170	0xbdb2f206	-0.087375686
171	0x3d5884e2	0.052861102
172	0x3d72a14e	0.059235863
173	0x3d8daef5	0.06918136
174	0x3da04d55	0.0782725
175	0xbd3f860e	-0.046758704
176	0xbd551d7f	-0.052030083
177	0x3d36f0b6	0.044663154
178	0x3daf9d69	0.085749455
179	0xbd1f881a	-0.038948156
180	0xbd3dfaf5	-0.04638191
181	0x3d897163	0.0671108
182	0x3d66efb6	0.05638095
183	0xbcb74614	-0.022372283
184	0xbdb4a809	-0.08821113
185	0xbd06b09a	-0.032883264
186	0x3dac2f59	0.08407468
187	0x3db33059	0.08749456
188	0xbd972cb3	-0.073815726
189	0xbd4f3af3	-0.050593328
190	0xbcc92cf8	-0.024557576
191	0xbce392e2	-0.02778
192	0xbccad3b0	-0.024759144
193	0xbd7c005b	-0.061523777
194	0xbd9ddb3b	-0.077078305
195	0xbd4f433f	-0.05060124
196	0xbd92dc99	-0.07170982
197	0x3c7d4668	0.015458681
198	0xbc73ad38	-0.014872842
199	0x3c236040	0.009971678
200	0x3daeb0f3	0.08529844
201	0xbdb1cec0	-0.086820126
202	0x3d820341	0.06348277
203	0xbce2c9a4	-0.02768404
204	0xbda2f655	-0.0795714
205	0x3c21e708	0.009881742
206	0x3d3b5ca6	0.045742653
207	0xbc78e978	-0.015192382
208	0xbd413ca9	-0.04717699
209	0xbcfcb47e	-0.030847784
210	0x3d4eb50e	0.050465636
211	0x3db19e87	0.08672815
212	0x3da96499	0.082711406
213	0x3d1b5b1e	0.037928693
214	0x3ba4c970	0.005028896
215	0xbdae50d7	-0.08511513
216	0x3c9de534	0.019274332
217	0x3a7dc880	0.0009681061
218	0xbda69981	-0.08134747
219	0x3d7b875e	0.061408393
220	0x3d60f48a	0.05492071
221	0x3bbbb4f0	0.0057283565
222	0xbd0a60d0	-0.033783734
223	0x3bb4d300	0.005518317
224	0xbd252f4e	-0.040328316
225	0xbca2d7f8	-0.019878373
226	0x3c7f0ca8	0.015566982
227	0x3d13afa6	0.036056183
228	0xbca03498	-0.019556329
229	0x3d6591ce	0.056047253
230	0x3da0aa3b	0.07844969
231	0x3d77372a	0.060355343
232	0x3da22e03	0.07918932
233	0x3dad3f0f	0.08459293
234	0xbd0d9f96	-0.03457602
235	0x3db0417b	0.086062394
236	0xbd09c76a	-0.03363744
237	0x3bd91e20	0.0066259056
238	0x3bc0d210	0.0058844164
239	0xbd5fdc9e	-0.054653756
240	0xbd2ab678	-0.041677922
241	0xbd582800	-0.052772522
242	0x3ce20258	0.027589008
243	0x3da01447	0.078163676
244	0xbd99a9d4	-0.07503095
245	0x3d6356f6	0.055502854
246	0xbd02f54d	-0.03197222
247	0x3d4ee2b2	0.050509162
248	0xbd77b4f6	-0.060475312
249	0x3d422ac2	0.04740406
250	0xbc1c20b0	-0.009529278
251	0xbd38ab97	-0.045085516
252	0xbd5c4ab1	-0.05378217
253	0x3d8313c7	0.064002566
254	0x3d87b39b	0.06626054
255	0x3d6a97b6	0.05727359

fc3.bias f4 [128]
0	0xbdb3954b	-0.0876871
1	0x3d3517d6	0.044212185
2	0xbc219f48	-0.009864636
3	0xbda346e0	-0.07972503
4	0xbbde64f0	-0.006786935
5	0xbd291360	-0.041278243
6	0xbd602aa4	-0.054728165
7	0x3d199bd2	0.037502117
8	0xbd62c999	-0.05536804
9	0x3ca48a3c	0.020085447
10	0xbdb3c51c	-0.0877783
11	0x3d66ebf6	0.056377374
12	0xbd6f743c	-0.05846046
13	0x3bb15650	0.0054119006
14	0x3d559b3a	0.05214999
15	0xbd3ea981	-0.04654837
16	0xbc33cc68	-0.010974027
17	0x3d1c5396	0.03816565
18	0xbd8fee69	-0.07027895
19	0x3cf8614c	0.030319832
20	0x39712000	0.00022995472
21	0xbcc9324c	-0.024560116
22	0xbd954b6d	-0.07289777
23	0x3d29846e	0.04138606
24	0x3cb32ea4	0.021872826
25	0xbd2b7fcc	-0.041869923
26	0xbc6f4b88	-0.01460541
27	0x3d4287a6	0.047492646
28	0xbd2a1f3a	-0.041533686
29	0xbd9b8747	-0.075941615
30	0xbd3c5824	-0.045982495
31	0xbd31b800	-0.043388367
32	0xbd8b7f2b	-0.06811365
33	0xbd62a83b	-0.05533622
34	0x3d86c11d	0.06579802
35	0xbd63d507	-0.05562308
36	0xbdac9216	-0.08426301
37	0xbd044122	-0.032288678
38	0xbd74e09e	-0.059784524
39	0x3d80564b	0.06266459
40	0x3d301ce6	0.04299631
41	0xbd1546ca	-0.036444463
42	0x3c425400	0.0118608475
43	0xbd881d88	-0.06646258
44	0x3ceda448	0.029009
45	0xbdaedf6d	-0.08538709
46	0xbda00e1a	-0.0781519
47	0xbd068f83	-0.032851707
48	0x3d88ae33	0.06673851
49	0x3d72405e	0.059143417
50	0x3d40d4d2	0.04707796
51	0x3c873f04	0.01650954
52	0xbd9096ef	-0.07060038
53	0x3d10503a	0.03523276
54	0x3d5e0a22	0.054208882
55	0x3ca90250	0.020630985
56	0xba099500	-0.0005248338
57	0xbc02e018	-0.007987998
58	0xbc8d6574	-0.01726029
59	0xbd42d9f7	-0.04757115
60	0x3bc23140	0.005926281
61	0x3d73bc5a	0.059505798
62	0x3d650e4e	0.055921845
63	0xbd970b88	-0.07375246
64	0x3da07d1f	0.07836365
65	0xbdaec55c	-0.08533737
66	0x3d998ddd	0.074977614
67	0x3d80bcc7	0.062860064
68	0xbd9550ef	-0.072908275
69	0x3db493f9	0.08817286
70	0xbdab2231	-0.08356131
71	0xbc20b260	-0.009808153
72	0x3c9fda8c	0.019513391
73	0xbd543c70	-0.05181545
74	0xbd4d8154	-0.050172165
75	0xbc49c0d0	-0.0123140365
76	0x3d7b647a	0.06137512
77	0x3cfadf90	0.030624181
78	0x3ce19874	0.027538516
79	0xbd6469aa	-0.05576483
80	0x3c956fe4	0.01824183
81	0x3db10477	0.0864343
82	0x3cb3e5f8	0.021960244
83	0x3cf91c54	0.030409016
84	0x3d9dd5ef	0.0770682
85	0x3c9d0f7c	0.019172423
86	0xbc5eb4a8	-0.0135928765
87	0x3d4d76da	0.050162174
88	0x3d9f8c19	0.077903934
89	0x3dad3e97	0.08459204
90	0xbd1a0cd6	-0.037609898
91	0xbd64fddc	-0.05590616
92	0x3d184876	0.03717848
93	0xbd359cef	-0.044339117
94	0xbbf48e80	-0.0074632764
95	0x3c958f94	0.01825694
96	0x3d166d52	0.03672535
97	0xbd137400	-0.035999298
98	0xbd33175b	-0.043723445
99	0xbd91e4c8	-0.07123715
100	0x3b832ce0	0.0040031523
101	0xbd0ed952	-0.03487522
102	0x3c8745d4	0.016512789
103	0xbb00c8e0	-0.001965098
104	0xbd9aae52	-0.0755278
105	0xbd415e75	-0.047209222
106	0x3c6ed720	0.014577657
107	0xbd389036	-0.045059405
108	0xbda9a5a0	-0.082835436
109	0x39e86e00	0.00044332445
110	0x3cc14300	0.023591518
111	0x3cbcb86c	0.023037158
112	0x3d7f3dbe	0.06231474
113	0x3d12142e	0.035663776
114	0xbd47592d	-0.04866903
115	0xbc3b9ac8	-0.011450477
116	0xbda810e8	-0.082063496
117	0xbd92bcd1	-0.0716492
118	0xbd16c71d	-0.036810983
119	0xbca03940	-0.019558549
120	0x3d9c68d7	0.07637184
121	0xbd7c2a22	-0.06156362
122	0xbc1ba7d8	-0.009500466
123	0x3cd4dcd4	0.025984205
124	0x3ca246e0	0.019809186
125	0x3c37a9c8	0.011209913
126	0xbc33f618	-0.010983966
127	0xbd136b5c	-0.035991058

fc4.weight f4 [1, 128]
0	0xbd57c5de	-0.052678935
1	0xbf47ef81	-0.7809983
2	0xbed9b85d	-0.4252347
3	0xbf1fef2d	-0.6247433
4	0x3d3daa8b	0.04630522
5	0xbefd62be	-0.49489397
6	0xbf9d6e48	-1.229928
7	0xbf09250e	-0.53572166
8	0x3d997f9d	0.074950434
9	0xbdf5af25	-0.11996297
10	0x3e998a28	0.29988217
11	0x3e3e8f7b	0.18609421
12	0xbdbafd43	-0.09130337
13	0xbee397a9	-0.44451645
14	0xbe5f9c51	-0.21836974
15	0xbedc3121	-0.43006232
16	0x3dc7e7cf	0.09761011
17	0xbf4c1f5c	-0.7973535
18	0xbe537f5c	-0.20654052
19	0xbe3aee85	-0.1825505
20	0xbecbb98f	-0.39790007
21	0x3e3ad219	0.18244208
22	0x3b312ea7	0.0027035864
23	0xbf63ca8f	-0.88980955
24	0x3e678fa4	0.22613388
25	0xbde4fd35	-0.11181108
26	0xbe1a5bd1	-0.15074088
27	0xbf33a458	-0.70172644
28	0x3dc2a5f5	0.0950431
29	0xbf13b0c2	-0.57691586
30	0xbf0bab69	-0.54558426
31	0xbe17b154	-0.14813739
32	0x3e583ca7	0.21116887
33	0x3e3a17d9	0.1817316
34	0xbe3cc11e	-0.18433043
35	0xbedbea60	-0.4295225
36	0xbe050b3a	-0.12992564
37	0xbe596e38	-0.21233451
38	0xbfb7683b	-1.4328684
39	0xbddd8890	-0.10817063
40	0xbe31d3ec	-0.17365998
41	0xbdebe2f4	-0.11517897
42	0xbf0ce3fc	-0.55035377
43	0xbe44fe65	-0.19237669
44	0x3d8a6802	0.06758119
45	0xbf1fe847	-0.624638
46	0x3d7644a3	0.06012405
47	0xbda7571b	-0.08170911
48	0xbec82795	-0.390927
49	0xbec2e78f	-0.3806729
50	0x3d2003e7	0.03906622
51	0xbf825701	-1.0182801
52	0xbee9acbf	-0.45639607
53	0xbf366c64	-0.7125914
54	0x3df9bfe8	0.12194806
55	0xbee64457	-0.44974014
56	0xbf387777	-0.7205729
57	0x3e8f106c	0.27942216
58	0x3e445252	0.19172028
59	0x3d7e9a4e	0.062158875
60	0xbe78ecb4	-0.24309045
61	0x3e7d198c	0.24716777
62	0xbe4edf22	-0.20202306
63	0xbda6a6cd	-0.081372835
64	0xbde43cdd	-0.11144421
65	0xbf9d5505	-1.2291571
66	0xbe64fa2b	-0.22361057
67	0xbf1cb9f7	-0.6122126
68	0x3d8cc8a9	0.068742104
69	0x3eb8d570	0.3610034
70	0x3e3107df	0.17288159
71	0xbddd9fa7	-0.10821467
72	0xbf686021	-0.9077168
73	0x3dd053ef	0.10172259
74	0x3d4fe2ae	0.050753288
75	0xbe9245a4	-0.28568757
76	0x3d8bcd83	0.068263076
77	0x3e3bb186	0.18329439
78	0xba67d99c	-0.0008844377
79	0xbeab87f1	-0.33502153
80	0xbe0bcf0a	-0.13653198
81	0x3d8a8adb	0.06764766
82	0x3d8712ba	0.06595369
83	0xbf55dff6	-0.8354486
84	0x3ed43045	0.41443077
85	0xbf71801e	-0.94336116
86	0xbe32570b	-0.17416017
87	0xbf12b9de	-0.5731486
88	0xbdaa31d7	-0.083102874
89	0xbe6f8a6a	-0.23392645
90	0xbf3546f0	-0.7081137
91	0x3e9a9f88	0.30199838
92	0x3d8455d9	0.06461687
93	0x3dcdb720	0.10044694
94	0xbf1ad663	-0.6048338
95	0x3d534aa2	0.051584847
96	0x3e090105	0.13379295
97	0xbe341fd9	-0.17590274
98	0xbe782fa0	-0.24236917
99	0x3ee5d029	0.44885376
100	0x3d94d544	0.0726724
101	0xbe04affb	-0.12957756
102	0x3e067389	0.1313001
103	0xbf5d4fc2	-0.86449826
104	0xbe0367c7	-0.12832557
105	0xbe824a1f	-0.25447175
106	0xbdf7d56e	-0.12101255
107	0xbed3ba8a	-0.41353256
108	0xbeaa7c70	-0.33298063
109	0xbea763fc	-0.3269347
110	0xbf65c310	-0.89750767
111	0xbf8113c4	-1.0084157
112	0xbf60450a	-0.87605345
113	0x3e0eb88d	0.13937588
114	0xbe2b50ea	-0.16730085
115	0x3daf622c	0.08563647
116	0x3ec4372f	0.38323352
117	0xbe87e31f	-0.26540467
118	0x3d9259c1	0.071460254
119	0xbe794fd3	-0.24346857
120	0xbe3d6edb	-0.1849932
121	0xbed09afa	-0.40743238
122	0xbdd525cc	-0.104076
123	0xbe0ea88e	-0.13931486
124	0xbf07b011	-0.5300303
125	0x3e0b2558	0.13588464
126	0x3ea4ba7c	0.32173526
127	0xbf1e2d62	-0.61788

batch_norm_input.weight f4 [256]
0	0x3eeff3a6	0.46865577
1	0x3e94b4ef	0.2904429
2	0x3f35aaeb	0.70963925
3	0x3ecfeef8	0.40612006
4	0x3f1eb4d0	0.6199465
5	0x3e83239a	0.256131
6	0x3edafafc	0.4276961
7	0x3f004bd9	0.50115734
8	0x3e2eb29b	0.1706032
9	0x3f344623	0.7041952
10	0x3a5a5caf	0.0008329851
11	0x3f02eeff	0.5114593
12	0x3e59f703	0.21285634
13	0x3f19693e	0.5992621
14	0x3ec696fb	0.38787064
15	0x3eb2966f	0.34880397
16	0x3eac1746	0.33611506
17	0x3ee5f75a	0.44915277
18	0x3f07a23d	0.5298193
19	0x3ec8d9ad	0.39228573
20	0x3eb849c4	0.3599378
21	0x3eec1866	0.46112365
22	0x3eae1be4	0.34005654
23	0x3f087880	0.5330887
24	0x3f5f5f0f	0.8725442
25	0x3c42944a	0.011876175
26	0x3ec9256c	0.39286363
27	0x3f403d47	0.750935
28	0x3ed01a24	0.40644944
29	0x3eb92963	0.36164388
30	0x3e94a29c	0.2903031
31	0x3eec767e	0.46184152
32	0x3ef2c417	0.4741523
33	0x3f2c3d05	0.6728061
34	0x3f6288cd	0.8848999
35	0x3eae4730	0.34038687
36	0x3f17afa3	0.59252375
37	0x3f031921	0.5121022
38	0x3f1086ec	0.56455874
39	0x3ed2f65c	0.41203582
40	0x3f3c3c8c	0.7352989
41	0x3e88e8a5	0.26739994
42	0x3ed54ee7	0.4166176
43	0x3e8b4194	0.2719847
44	0x3e4cd456	0.20002875
45	0x3ecee7ef	0.40411326
46	0x3eeb1123	0.45911512
47	0x3ef6eea5	0.48228946
48	0x3f25affc	0.64721656
49	0x3b86c058	0.0041122846
50	0x3edb269f	0.42802903
51	0x3eafb0d4	0.34314597
52	0x3edafd74	0.42771494
53	0x3ed447fd	0.41461173
54	0x3f26cdd3	0.6515781
55	0x3ee024c1	0.4377804
56	0x3ed2381a	0.41058427
57	0xba80ad86	-0.0009817339
58	0x3ee57d9b	0.44822392
59	0x3efcfeba	0.4941309
60	0x3ea40c16	0.3204047
61	0x3ed07f4e	0.40722126
62	0x3ee800ae	0.4531302
63	0x3ecb8cd2	0.39755875
64	0x3e9c8e07	0.30577108
65	0x3f1174dc	0.5681894
66	0x3e95c2b0	0.29250097
67	0x3eccc4d1	0.3999391
68	0x3ecaa568	0.3957932
69	0x3f641445	0.8909343
70	0x3f062576	0.5240091
71	0x3e43eaed	0.19132586
72	0xbc132021	-0.008979828
73	0x3eb68594	0.35648787
74	0x3ea965b1	0.33085397
75	0x3ee16589	0.44022778
76	0x3f0bf13b	0.54664963
77	0x3ed7f86f	0.42181727
78	0x3f67a1b0	0.9048109
79	0x3ef08c37	0.46981975
80	0x3f490f3d	0.78538877
81	0x3f3bbcff	0.7333526
82	0x3ec5d1be	0.38636583
83	0x3f1a76e8	0.60337687
84	0x3f67dafb	0.9056851
85	0x3f0a4a9b	0.5402009
86	0x3eaa6a39	0.33284166
87	0x3f1ca450	0.6118822
88	0x3e81fc81	0.25387958
89	0x3ee6adb9	0.45054415
90	0x3ecbb119	0.39783552
91	0x3f071e1d	0.52780324
92	0x3efe8bad	0.4971594
93	0x3e8dac2e	0.27670425
94	0x3ef1062a	0.47075015
95	0x3ecef77d	0.40423194
96	0xbc0995e3	-0.008397552
97	0xbb2cdec9	-0.0026377907
98	0x3eec84af	0.4619498
99	0x3b392e76	0.0028256453
100	0x3ee83cc4	0.4535886
101	0x3edb0bda	0.4278248
102	0x3eee397b	0.4652823
103	0x3b4190f2	0.0029535857
104	0x3eee3a22	0.46528727
105	0x3ea8bf3f	0.3295841
106	0x3e839780	0.25701523
107	0x3ed86aed	0.42269078
108	0x3eb25273	0.3482853
109	0x3f81cd6c	1.0140815
110	0x3ee9b3c6	0.4564497
111	0x3ebba372	0.36648136
112	0x3ea94e4d	0.3306755
113	0x3ec6eb61	0.38851455
114	0x38f67d03	0.00011753479
115	0x3ef654d3	0.4811159
116	0x3f1f64d2	0.62263215
117	0x3ec424bd	0.3830928
118	0x3f18517e	0.5949935
119	0x3ea76a80	0.3269844
120	0x3ea32802	0.3186646
121	0x3eff2819	0.4983528
122	0x3ee9b107	0.45642874
123	0x3ef9765b	0.4872311
124	0x3ec64ecc	0.38731992
125	0x3ee15528	0.44010282
126	0x3e745f95	0.23864587
127	0x3ecec012	0.40380913
128	0x3f71677a	0.9429852
129	0x3b5f7153	0.0034094646
130	0x3ef72497	0.48270103
131	0x3ed546d4	0.416556
132	0x3f2190cd	0.63111573
133	0x3ebc45f2	0.36772114
134	0x3f7857c3	0.97008914
135	0x3e81128a	0.25209457
136	0x3f0696ac	0.5257366
137	0x3f1efe0a	0.6210638
138	0x3e8bd1e0	0.2730856
139	0x3eb5ed18	0.3553245
140	0x3efb6176	0.49097794
141	0x3f0761e9	0.52883774
142	0x3e62a4e8	0.22133219
143	0x3ea83259	0.32850912
144	0x3f98fd62	1.1952326
145	0x3ee98557	0.45609543
146	0x3f05a545	0.52205306
147	0x3eb1d0d2	0.3472963
148	0x3f45c906	0.7725986
149	0x3ef58e06	0.47959918
150	0x3b957d57	0.004562061
151	0x3eb3e1d8	0.35133243
152	0x3f0ac25f	0.54202837
153	0x3f085dc6	0.53268087
154	0x3edf5f25	0.43627277
155	0x3e67ba9e	0.22629783
156	0x3f23e4fb	0.6402127
157	0x3fa5acc4	1.2943349
158	0x3f8103f7	1.0079335
159	0x3ecac12b	0.396005
160	0x3ee4931e	0.44643492
161	0x3ece9dca	0.40354759
162	0x3e9b22a6	0.30299872
163	0x3f43e25e	0.76517284
164	0x3ef005ea	0.46879512
165	0x3ec500ab	0.38477072
166	0x3ec51bd8	0.38497806
167	0x3f08a11d	0.5337084
168	0x3ea4153e	0.32047457
169	0x3eedc0a9	0.4643605
170	0x3f7dc8ae	0.9913434
171	0x3eb24c21	0.34823707
172	0x3e1ca41c	0.15296978
173	0x3ebca78e	0.36846584
174	0x3ecced8e	0.4002499
175	0x3e88f278	0.2674749
176	0x3f19dc35	0.60101634
177	0x3e9c017d	0.30469885
178	0x3e9f8550	0.31156397
179	0x3ee0443b	0.43802056
180	0x3f4178bb	0.75574845
181	0x3eb8f4a3	0.36124143
182	0x3e9fca24	0.3120891
183	0x3f430a58	0.7618766
184	0x3e514fb4	0.2044056
185	0x3eeec044	0.46631062
186	0x3ec7c672	0.3901859
187	0x3e803336	0.2503907
188	0x3f9d6bbe	1.2298505
189	0x3eb62052	0.35571533
190	0x3f02abc2	0.5104333
191	0x3edfc53a	0.4370516
192	0x3e3a69d0	0.18204427
193	0x3e98b197	0.2982299
194	0x3ed9540d	0.42446938
195	0x3ef4a17e	0.4777946
196	0x3eff777b	0.49895844
197	0x3fb357a6	1.4011123
198	0x3eea515b	0.45765194
199	0x3edbffd3	0.42968616
200	0x3f15a392	0.58452713
201	0x3f096d2d	0.53682214
202	0x3ec4f67f	0.38469312
203	0x3ececb64	0.4038955
204	0x3f015487	0.50519603
205	0x3efae9d9	0.49006537
206	0x3e9ee21e	0.3103189
207	0x3e61cddc	0.22051185
208	0x3eed986b	0.46405348
209	0x3f1b1d81	0.60591894
210	0x3f03dc39	0.5150791
211	0x3ede758c	0.43449056
212	0x3ef5d7f4	0.48016322
213	0x3f140b96	0.5783018
214	0x3e875a22	0.26435953
215	0x3ebad1a1	0.3648806
216	0x3efd0805	0.4942018
217	0x3eedaf7a	0.4642294
218	0x3e9736ba	0.2953394
219	0x3f3ff03c	0.74975944
220	0x3f476a4c	0.7789657
221	0x3ea63c4b	0.32467875
222	0x3eb73a51	0.3578668
223	0x3f2a1f3f	0.6645393
224	0x3ebbaee7	0.36656877
225	0x3f0e5db5	0.55611736
226	0x3ed870b2	0.4227348
227	0x3ef1ac33	0.4720169
228	0x3f46da5b	0.77676934
229	0x3ea5ba69	0.32368782
230	0x3f7203ac	0.9453685
231	0x3f068063	0.5253965
232	0x3ea68149	0.32520512
233	0x3f159aaa	0.58439124
234	0x3f8f2610	1.1183491
235	0x3efe0539	0.4961336
236	0x3ebec2d2	0.3725801
237	0x3eda9191	0.42689183
238	0x3f0aecde	0.5426768
239	0x3f5c1ab4	0.85978246
240	0x3ed45d71	0.4147754
241	0x3f7b1ded	0.9809254
242	0x3ebcb714	0.36858428
243	0x3eb699a7	0.35664102
244	0x3ba101d4	0.004913548
245	0x3ecdb190	0.40174532
246	0x3ea1e5d3	0.31620654
247	0x3f1ce45c	0.6128595
248	0x3ec2d839	0.3805559
249	0x3e970e73	0.2950321
250	0x3f0dbdc2	0.5536767
251	0x3f3f5740	0.7474251
252	0x3ea903f0	0.33010817
253	0x3f0a344a	0.53986037
254	0x3eb52ec9	0.35387257
255	0x3ed8b0cf	0.42322394
